{"format": "graph-model", "generatedBy": "2.15.0", "convertedBy": "TensorFlow.js Converter v4.22.0", "signature": {"inputs": {"conv_feats": {"name": "conv_feats:0", "dtype": "DT_FLOAT", "tensorShape": {"dim": [{"size": "-1"}, {"size": "1"}]}}, "auction_seq": {"name": "auction_seq:0", "dtype": "DT_INT64", "tensorShape": {"dim": [{"size": "-1"}, {"size": "40"}]}}, "aux_feats": {"name": "aux_feats:0", "dtype": "DT_FLOAT", "tensorShape": {"dim": [{"size": "-1"}, {"size": "10"}]}}, "hand_feats": {"name": "hand_feats:0", "dtype": "DT_FLOAT", "tensorShape": {"dim": [{"size": "-1"}, {"size": "52"}]}}}, "outputs": {"logits": {"name": "Identity:0", "dtype": "DT_FLOAT", "tensorShape": {"dim": [{"size": "-1"}, {"size": "38"}]}}}}, "modelTopology": {"node": [{"name": "StatefulPartitionedCall/onnx_tf_prefix_/output_head/output_head.3/Constant_2", "op": "Const", "attr": {"value": {"tensor": {"dtype": "DT_FLOAT", "tensorShape": {}}}, "dtype": {"type": "DT_FLOAT"}}}, {"name": "unknown_37", "op": "Const", "attr": {"value": {"tensor": {"dtype": "DT_FLOAT", "tensorShape": {}}}, "dtype": {"type": "DT_FLOAT"}}}, {"name": "unknown_40", "op": "Const", "attr": {"value": {"tensor": {"dtype": "DT_FLOAT", "tensorShape": {}}}, "dtype": {"type": "DT_FLOAT"}}}, {"name": "unknown_39", "op": "Const", "attr": {"dtype": {"type": "DT_FLOAT"}, "value": {"tensor": {"dtype": "DT_FLOAT", "tensorShape": {}}}}}, {"name": "unknown_38", "op": "Const", "attr": {"value": {"tensor": {"dtype": "DT_FLOAT", "tensorShape": {}}}, "dtype": {"type": "DT_FLOAT"}}}, {"name": "StatefulPartitionedCall/onnx_tf_prefix_/output_head/output_head.1/Constant_2", "op": "Const", "attr": {"dtype": {"type": "DT_FLOAT"}, "value": {"tensor": {"dtype": "DT_FLOAT", "tensorShape": {}}}}}, {"name": "unknown_31", "op": "Const", "attr": {"value": {"tensor": {"dtype": "DT_FLOAT", "tensorShape": {}}}, "dtype": {"type": "DT_FLOAT"}}}, {"name": "unknown_34", "op": "Const", "attr": {"value": {"tensor": {"dtype": "DT_FLOAT", "tensorShape": {}}}, "dtype": {"type": "DT_FLOAT"}}}, {"name": "unknown_33", "op": "Const", "attr": {"value": {"tensor": {"dtype": "DT_FLOAT", "tensorShape": {}}}, "dtype": {"type": "DT_FLOAT"}}}, {"name": "unknown_32", "op": "Const", "attr": {"value": {"tensor": {"dtype": "DT_FLOAT", "tensorShape": {}}}, "dtype": {"type": "DT_FLOAT"}}}, {"name": "StatefulPartitionedCall/onnx_tf_prefix_/Concat/axis", "op": "Const", "attr": {"value": {"tensor": {"dtype": "DT_INT32", "tensorShape": {}}}, "dtype": {"type": "DT_INT32"}}}, {"name": "StatefulPartitionedCall/flatten_2/Const", "op": "Const", "attr": {"value": {"tensor": {"dtype": "DT_INT32", "tensorShape": {"dim": [{"size": "2"}]}}}, "dtype": {"type": "DT_INT32"}}}, {"name": "StatefulPartitionedCall/transpose_2", "op": "Const", "attr": {"value": {"tensor": {"dtype": "DT_FLOAT", "tensorShape": {"dim": [{"size": "191"}, {"size": "1024"}]}}}, "dtype": {"type": "DT_FLOAT"}}}, {"name": "StatefulPartitionedCall/mul_5", "op": "Const", "attr": {"dtype": {"type": "DT_FLOAT"}, "value": {"tensor": {"dtype": "DT_FLOAT", "tensorShape": {"dim": [{"size": "1024"}]}}}}}, {"name": "StatefulPartitionedCall/onnx_tf_prefix_/output_head/output_head.1/Constant_1", "op": "Const", "attr": {"value": {"tensor": {"dtype": "DT_FLOAT", "tensorShape": {}}}, "dtype": {"type": "DT_FLOAT"}}}, {"name": "StatefulPartitionedCall/transpose_3", "op": "Const", "attr": {"value": {"tensor": {"dtype": "DT_FLOAT", "tensorShape": {"dim": [{"size": "1024"}, {"size": "512"}]}}}, "dtype": {"type": "DT_FLOAT"}}}, {"name": "StatefulPartitionedCall/mul_7", "op": "Const", "attr": {"value": {"tensor": {"dtype": "DT_FLOAT", "tensorShape": {"dim": [{"size": "512"}]}}}, "dtype": {"type": "DT_FLOAT"}}}, {"name": "StatefulPartitionedCall/onnx_tf_prefix_/output_head/output_head.3/Constant_1", "op": "Const", "attr": {"dtype": {"type": "DT_FLOAT"}, "value": {"tensor": {"dtype": "DT_FLOAT", "tensorShape": {}}}}}, {"name": "StatefulPartitionedCall/transpose_4", "op": "Const", "attr": {"dtype": {"type": "DT_FLOAT"}, "value": {"tensor": {"dtype": "DT_FLOAT", "tensorShape": {"dim": [{"size": "512"}, {"size": "38"}]}}}}}, {"name": "StatefulPartitionedCall/mul_9", "op": "Const", "attr": {"value": {"tensor": {"dtype": "DT_FLOAT", "tensorShape": {"dim": [{"size": "38"}]}}}, "dtype": {"type": "DT_FLOAT"}}}, {"name": "StatefulPartitionedCall/onnx_tf_prefix_/auction_embedding/Constant", "op": "Const", "attr": {"value": {"tensor": {"dtype": "DT_INT64", "tensorShape": {}}}, "dtype": {"type": "DT_INT64"}}}, {"name": "unknown_27", "op": "Const", "attr": {"value": {"tensor": {"dtype": "DT_FLOAT", "tensorShape": {"dim": [{"size": "128"}]}}}, "dtype": {"type": "DT_FLOAT"}}}, {"name": "StatefulPartitionedCall/onnx_tf_prefix_/transformer_encoder/layers.1/norm2/ReduceMean_1/reduction_indices", "op": "Const", "attr": {"value": {"tensor": {"dtype": "DT_INT32", "tensorShape": {}}}, "dtype": {"type": "DT_INT32"}}}, {"name": "StatefulPartitionedCall/onnx_tf_prefix_/transformer_encoder/layers.1/norm2/Constant_1", "op": "Const", "attr": {"value": {"tensor": {"dtype": "DT_FLOAT", "tensorShape": {}}}, "dtype": {"type": "DT_FLOAT"}}}, {"name": "unknown_26", "op": "Const", "attr": {"value": {"tensor": {"dtype": "DT_FLOAT", "tensorShape": {"dim": [{"size": "128"}]}}}, "dtype": {"type": "DT_FLOAT"}}}, {"name": "unknown_24", "op": "Const", "attr": {"value": {"tensor": {"dtype": "DT_FLOAT", "tensorShape": {"dim": [{"size": "512"}]}}}, "dtype": {"type": "DT_FLOAT"}}}, {"name": "unknown_21", "op": "Const", "attr": {"value": {"tensor": {"dtype": "DT_FLOAT", "tensorShape": {"dim": [{"size": "128"}]}}}, "dtype": {"type": "DT_FLOAT"}}}, {"name": "StatefulPartitionedCall/onnx_tf_prefix_/transformer_encoder/layers.1/norm1/ReduceMean_1/reduction_indices", "op": "Const", "attr": {"value": {"tensor": {"dtype": "DT_INT32", "tensorShape": {}}}, "dtype": {"type": "DT_INT32"}}}, {"name": "StatefulPartitionedCall/onnx_tf_prefix_/transformer_encoder/layers.1/norm1/Constant_1", "op": "Const", "attr": {"value": {"tensor": {"dtype": "DT_FLOAT", "tensorShape": {}}}, "dtype": {"type": "DT_FLOAT"}}}, {"name": "StatefulPartitionedCall/Cast_63", "op": "Const", "attr": {"dtype": {"type": "DT_INT64"}, "value": {"tensor": {"dtype": "DT_INT64", "tensorShape": {"dim": [{"size": "1"}]}}}}}, {"name": "StatefulPartitionedCall/ExpandDims_35/dim", "op": "Const", "attr": {"value": {"tensor": {"dtype": "DT_INT32", "tensorShape": {}}}, "dtype": {"type": "DT_INT32"}}}, {"name": "StatefulPartitionedCall/ExpandDims_36/dim", "op": "Const", "attr": {"dtype": {"type": "DT_INT32"}, "value": {"tensor": {"dtype": "DT_INT32", "tensorShape": {}}}}}, {"name": "StatefulPartitionedCall/Cast_60", "op": "Const", "attr": {"value": {"tensor": {"dtype": "DT_INT64", "tensorShape": {"dim": [{"size": "1"}]}}}, "dtype": {"type": "DT_INT64"}}}, {"name": "StatefulPartitionedCall/Cast_58", "op": "Const", "attr": {"value": {"tensor": {"dtype": "DT_INT64", "tensorShape": {"dim": [{"size": "1"}]}}}, "dtype": {"type": "DT_INT64"}}}, {"name": "StatefulPartitionedCall/ExpandDims_32/dim", "op": "Const", "attr": {"value": {"tensor": {"dtype": "DT_INT32", "tensorShape": {}}}, "dtype": {"type": "DT_INT32"}}}, {"name": "StatefulPartitionedCall/onnx_tf_prefix_/transformer_encoder/layers.1/self_attn/Constant_23", "op": "Const", "attr": {"value": {"tensor": {"dtype": "DT_INT64", "tensorShape": {"dim": [{"size": "1"}]}}}, "dtype": {"type": "DT_INT64"}}}, {"name": "StatefulPartitionedCall/ExpandDims_51/dim", "op": "Const", "attr": {"value": {"tensor": {"dtype": "DT_INT32", "tensorShape": {}}}, "dtype": {"type": "DT_INT32"}}}, {"name": "StatefulPartitionedCall/ExpandDims_48/dim", "op": "Const", "attr": {"value": {"tensor": {"dtype": "DT_INT32", "tensorShape": {}}}, "dtype": {"type": "DT_INT32"}}}, {"name": "StatefulPartitionedCall/onnx_tf_prefix_/transformer_encoder/layers.1/self_attn/Concat_6/axis", "op": "Const", "attr": {"dtype": {"type": "DT_INT32"}, "value": {"tensor": {"dtype": "DT_INT32", "tensorShape": {}}}}}, {"name": "StatefulPartitionedCall/Const_37", "op": "Const", "attr": {"value": {"tensor": {"dtype": "DT_INT64", "tensorShape": {}}}, "dtype": {"type": "DT_INT64"}}}, {"name": "StatefulPartitionedCall/GatherV2_18/axis", "op": "Const", "attr": {"dtype": {"type": "DT_INT32"}, "value": {"tensor": {"dtype": "DT_INT32", "tensorShape": {}}}}}, {"name": "StatefulPartitionedCall/zeros_27", "op": "Const", "attr": {"value": {"tensor": {"dtype": "DT_INT64", "tensorShape": {}}}, "dtype": {"type": "DT_INT64"}}}, {"name": "StatefulPartitionedCall/onnx_tf_prefix_/transformer_encoder/layers.1/self_attn/Transpose_5/perm", "op": "Const", "attr": {"dtype": {"type": "DT_INT32"}, "value": {"tensor": {"dtype": "DT_INT32", "tensorShape": {"dim": [{"size": "4"}]}}}}}, {"name": "StatefulPartitionedCall/Cast_53", "op": "Const", "attr": {"value": {"tensor": {"dtype": "DT_INT64", "tensorShape": {"dim": [{"size": "1"}]}}}, "dtype": {"type": "DT_INT64"}}}, {"name": "StatefulPartitionedCall/Cast_50", "op": "Const", "attr": {"value": {"tensor": {"dtype": "DT_INT64", "tensorShape": {"dim": [{"size": "1"}]}}}, "dtype": {"type": "DT_INT64"}}}, {"name": "StatefulPartitionedCall/ExpandDims_29/dim", "op": "Const", "attr": {"dtype": {"type": "DT_INT32"}, "value": {"tensor": {"dtype": "DT_INT32", "tensorShape": {}}}}}, {"name": "StatefulPartitionedCall/ExpandDims_40/dim", "op": "Const", "attr": {"value": {"tensor": {"dtype": "DT_INT32", "tensorShape": {}}}, "dtype": {"type": "DT_INT32"}}}, {"name": "StatefulPartitionedCall/ExpandDims_44/dim", "op": "Const", "attr": {"value": {"tensor": {"dtype": "DT_INT32", "tensorShape": {}}}, "dtype": {"type": "DT_INT32"}}}, {"name": "StatefulPartitionedCall/onnx_tf_prefix_/transformer_encoder/layers.1/self_attn/Concat_2/axis", "op": "Const", "attr": {"value": {"tensor": {"dtype": "DT_INT32", "tensorShape": {}}}, "dtype": {"type": "DT_INT32"}}}, {"name": "StatefulPartitionedCall/Const_31", "op": "Const", "attr": {"dtype": {"type": "DT_INT64"}, "value": {"tensor": {"dtype": "DT_INT64", "tensorShape": {}}}}}, {"name": "StatefulPartitionedCall/GatherV2_14/axis", "op": "Const", "attr": {"value": {"tensor": {"dtype": "DT_INT32", "tensorShape": {}}}, "dtype": {"type": "DT_INT32"}}}, {"name": "StatefulPartitionedCall/zeros_22", "op": "Const", "attr": {"dtype": {"type": "DT_INT64"}, "value": {"tensor": {"dtype": "DT_INT64", "tensorShape": {}}}}}, {"name": "StatefulPartitionedCall/onnx_tf_prefix_/transformer_encoder/layers.1/self_attn/Transpose_2/perm", "op": "Const", "attr": {"value": {"tensor": {"dtype": "DT_INT32", "tensorShape": {"dim": [{"size": "3"}]}}}, "dtype": {"type": "DT_INT32"}}}, {"name": "StatefulPartitionedCall/ExpandDims_30/dim", "op": "Const", "attr": {"value": {"tensor": {"dtype": "DT_INT32", "tensorShape": {}}}, "dtype": {"type": "DT_INT32"}}}, {"name": "StatefulPartitionedCall/onnx_tf_prefix_/transformer_encoder/layers.1/self_attn/Constant_22", "op": "Const", "attr": {"value": {"tensor": {"dtype": "DT_INT64", "tensorShape": {"dim": [{"size": "1"}]}}}, "dtype": {"type": "DT_INT64"}}}, {"name": "StatefulPartitionedCall/ExpandDims_31/dim", "op": "Const", "attr": {"value": {"tensor": {"dtype": "DT_INT32", "tensorShape": {}}}, "dtype": {"type": "DT_INT32"}}}, {"name": "StatefulPartitionedCall/ExpandDims_47/dim", "op": "Const", "attr": {"value": {"tensor": {"dtype": "DT_INT32", "tensorShape": {}}}, "dtype": {"type": "DT_INT32"}}}, {"name": "StatefulPartitionedCall/onnx_tf_prefix_/transformer_encoder/layers.1/self_attn/Concat_5/axis", "op": "Const", "attr": {"value": {"tensor": {"dtype": "DT_INT32", "tensorShape": {}}}, "dtype": {"type": "DT_INT32"}}}, {"name": "StatefulPartitionedCall/Const_34", "op": "Const", "attr": {"value": {"tensor": {"dtype": "DT_INT64", "tensorShape": {}}}, "dtype": {"type": "DT_INT64"}}}, {"name": "StatefulPartitionedCall/GatherV2_17/axis", "op": "Const", "attr": {"value": {"tensor": {"dtype": "DT_INT32", "tensorShape": {}}}, "dtype": {"type": "DT_INT32"}}}, {"name": "StatefulPartitionedCall/zeros_25", "op": "Const", "attr": {"value": {"tensor": {"dtype": "DT_INT64", "tensorShape": {}}}, "dtype": {"type": "DT_INT64"}}}, {"name": "StatefulPartitionedCall/SelectV2_33", "op": "Const", "attr": {"value": {"tensor": {"dtype": "DT_INT64", "tensorShape": {"dim": [{"size": "1"}]}}}, "dtype": {"type": "DT_INT64"}}}, {"name": "StatefulPartitionedCall/zeros_26", "op": "Const", "attr": {"value": {"tensor": {"dtype": "DT_INT64", "tensorShape": {}}}, "dtype": {"type": "DT_INT64"}}}, {"name": "StatefulPartitionedCall/Const_36", "op": "Const", "attr": {"value": {"tensor": {"dtype": "DT_INT64", "tensorShape": {}}}, "dtype": {"type": "DT_INT64"}}}, {"name": "StatefulPartitionedCall/Shape_61", "op": "Const", "attr": {"value": {"tensor": {"dtype": "DT_INT64", "tensorShape": {"dim": [{"size": "1"}]}}}, "dtype": {"type": "DT_INT64"}}}, {"name": "StatefulPartitionedCall/ExpandDims_53", "op": "Const", "attr": {"value": {"tensor": {"dtype": "DT_INT64", "tensorShape": {"dim": [{"size": "1"}, {"size": "1"}]}}}, "dtype": {"type": "DT_INT64"}}}, {"name": "StatefulPartitionedCall/Cast_57", "op": "Const", "attr": {"value": {"tensor": {"dtype": "DT_INT64", "tensorShape": {"dim": [{"size": "1"}]}}}, "dtype": {"type": "DT_INT64"}}}, {"name": "StatefulPartitionedCall/SelectV2_34", "op": "Const", "attr": {"dtype": {"type": "DT_INT64"}, "value": {"tensor": {"dtype": "DT_INT64", "tensorShape": {"dim": [{"size": "1"}]}}}}}, {"name": "StatefulPartitionedCall/Const_35", "op": "Const", "attr": {"value": {"tensor": {"dtype": "DT_INT64", "tensorShape": {}}}, "dtype": {"type": "DT_INT64"}}}, {"name": "StatefulPartitionedCall/ones_7", "op": "Const", "attr": {"value": {"tensor": {"dtype": "DT_INT64", "tensorShape": {"dim": [{"size": "1"}]}}}, "dtype": {"type": "DT_INT64"}}}, {"name": "StatefulPartitionedCall/Cast_59", "op": "Const", "attr": {"dtype": {"type": "DT_INT64"}, "value": {"tensor": {"dtype": "DT_INT64", "tensorShape": {"dim": [{"size": "1"}]}}}}}, {"name": "StatefulPartitionedCall/Cast_52", "op": "Const", "attr": {"value": {"tensor": {"dtype": "DT_INT64", "tensorShape": {"dim": [{"size": "1"}]}}}, "dtype": {"type": "DT_INT64"}}}, {"name": "StatefulPartitionedCall/onnx_tf_prefix_/transformer_encoder/layers.1/self_attn/Constant_20", "op": "Const", "attr": {"value": {"tensor": {"dtype": "DT_INT64", "tensorShape": {"dim": [{"size": "1"}]}}}, "dtype": {"type": "DT_INT64"}}}, {"name": "StatefulPartitionedCall/ExpandDims_42/dim", "op": "Const", "attr": {"value": {"tensor": {"dtype": "DT_INT32", "tensorShape": {}}}, "dtype": {"type": "DT_INT32"}}}, {"name": "StatefulPartitionedCall/ExpandDims_46/dim", "op": "Const", "attr": {"value": {"tensor": {"dtype": "DT_INT32", "tensorShape": {}}}, "dtype": {"type": "DT_INT32"}}}, {"name": "StatefulPartitionedCall/onnx_tf_prefix_/transformer_encoder/layers.1/self_attn/Concat_4/axis", "op": "Const", "attr": {"value": {"tensor": {"dtype": "DT_INT32", "tensorShape": {}}}, "dtype": {"type": "DT_INT32"}}}, {"name": "StatefulPartitionedCall/Const_33", "op": "Const", "attr": {"value": {"tensor": {"dtype": "DT_INT64", "tensorShape": {}}}, "dtype": {"type": "DT_INT64"}}}, {"name": "StatefulPartitionedCall/GatherV2_16/axis", "op": "Const", "attr": {"value": {"tensor": {"dtype": "DT_INT32", "tensorShape": {}}}, "dtype": {"type": "DT_INT32"}}}, {"name": "StatefulPartitionedCall/zeros_24", "op": "Const", "attr": {"dtype": {"type": "DT_INT64"}, "value": {"tensor": {"dtype": "DT_INT64", "tensorShape": {}}}}}, {"name": "StatefulPartitionedCall/onnx_tf_prefix_/transformer_encoder/layers.1/self_attn/Transpose_4/perm", "op": "Const", "attr": {"value": {"tensor": {"dtype": "DT_INT32", "tensorShape": {"dim": [{"size": "3"}]}}}, "dtype": {"type": "DT_INT32"}}}, {"name": "StatefulPartitionedCall/ExpandDims_33/dim", "op": "Const", "attr": {"dtype": {"type": "DT_INT32"}, "value": {"tensor": {"dtype": "DT_INT32", "tensorShape": {}}}}}, {"name": "StatefulPartitionedCall/onnx_tf_prefix_/transformer_encoder/layers.1/self_attn/Constant_24", "op": "Const", "attr": {"value": {"tensor": {"dtype": "DT_INT64", "tensorShape": {"dim": [{"size": "1"}]}}}, "dtype": {"type": "DT_INT64"}}}, {"name": "StatefulPartitionedCall/Cast_51", "op": "Const", "attr": {"dtype": {"type": "DT_INT64"}, "value": {"tensor": {"dtype": "DT_INT64", "tensorShape": {"dim": [{"size": "1"}]}}}}}, {"name": "StatefulPartitionedCall/onnx_tf_prefix_/transformer_encoder/layers.1/self_attn/Constant_19", "op": "Const", "attr": {"value": {"tensor": {"dtype": "DT_INT64", "tensorShape": {"dim": [{"size": "1"}]}}}, "dtype": {"type": "DT_INT64"}}}, {"name": "StatefulPartitionedCall/onnx_tf_prefix_/transformer_encoder/layers.1/self_attn/Constant_18", "op": "Const", "attr": {"value": {"tensor": {"dtype": "DT_INT64", "tensorShape": {}}}, "dtype": {"type": "DT_INT64"}}}, {"name": "StatefulPartitionedCall/ExpandDims_41/dim", "op": "Const", "attr": {"dtype": {"type": "DT_INT32"}, "value": {"tensor": {"dtype": "DT_INT32", "tensorShape": {}}}}}, {"name": "StatefulPartitionedCall/ExpandDims_45/dim", "op": "Const", "attr": {"value": {"tensor": {"dtype": "DT_INT32", "tensorShape": {}}}, "dtype": {"type": "DT_INT32"}}}, {"name": "StatefulPartitionedCall/onnx_tf_prefix_/transformer_encoder/layers.1/self_attn/Concat_3/axis", "op": "Const", "attr": {"value": {"tensor": {"dtype": "DT_INT32", "tensorShape": {}}}, "dtype": {"type": "DT_INT32"}}}, {"name": "StatefulPartitionedCall/Const_32", "op": "Const", "attr": {"dtype": {"type": "DT_INT64"}, "value": {"tensor": {"dtype": "DT_INT64", "tensorShape": {}}}}}, {"name": "StatefulPartitionedCall/GatherV2_15/axis", "op": "Const", "attr": {"value": {"tensor": {"dtype": "DT_INT32", "tensorShape": {}}}, "dtype": {"type": "DT_INT32"}}}, {"name": "StatefulPartitionedCall/zeros_23", "op": "Const", "attr": {"value": {"tensor": {"dtype": "DT_INT64", "tensorShape": {}}}, "dtype": {"type": "DT_INT64"}}}, {"name": "StatefulPartitionedCall/onnx_tf_prefix_/transformer_encoder/layers.1/self_attn/Transpose_3/perm", "op": "Const", "attr": {"value": {"tensor": {"dtype": "DT_INT32", "tensorShape": {"dim": [{"size": "3"}]}}}, "dtype": {"type": "DT_INT32"}}}, {"name": "StatefulPartitionedCall/ExpandDims_52/dim", "op": "Const", "attr": {"value": {"tensor": {"dtype": "DT_INT32", "tensorShape": {}}}, "dtype": {"type": "DT_INT32"}}}, {"name": "ConstantFolding/StatefulPartitionedCall/onnx_tf_prefix_/transformer_encoder/layers.1/self_attn/Div_recip", "op": "Const", "attr": {"dtype": {"type": "DT_DOUBLE"}, "value": {"tensor": {"dtype": "DT_DOUBLE", "tensorShape": {}}}}}, {"name": "StatefulPartitionedCall/ExpandDims_49/dim", "op": "Const", "attr": {"value": {"tensor": {"dtype": "DT_INT32", "tensorShape": {}}}, "dtype": {"type": "DT_INT32"}}}, {"name": "StatefulPartitionedCall/onnx_tf_prefix_/transformer_encoder/layers.1/self_attn/Concat_7/axis", "op": "Const", "attr": {"value": {"tensor": {"dtype": "DT_INT32", "tensorShape": {}}}, "dtype": {"type": "DT_INT32"}}}, {"name": "StatefulPartitionedCall/Const_38", "op": "Const", "attr": {"value": {"tensor": {"dtype": "DT_INT64", "tensorShape": {}}}, "dtype": {"type": "DT_INT64"}}}, {"name": "StatefulPartitionedCall/GatherV2_19/axis", "op": "Const", "attr": {"value": {"tensor": {"dtype": "DT_INT32", "tensorShape": {}}}, "dtype": {"type": "DT_INT32"}}}, {"name": "StatefulPartitionedCall/zeros_28", "op": "Const", "attr": {"value": {"tensor": {"dtype": "DT_INT64", "tensorShape": {}}}, "dtype": {"type": "DT_INT64"}}}, {"name": "StatefulPartitionedCall/onnx_tf_prefix_/transformer_encoder/layers.1/self_attn/Transpose_6/perm", "op": "Const", "attr": {"value": {"tensor": {"dtype": "DT_INT32", "tensorShape": {"dim": [{"size": "4"}]}}}, "dtype": {"type": "DT_INT32"}}}, {"name": "StatefulPartitionedCall/ExpandDims_43/dim", "op": "Const", "attr": {"value": {"tensor": {"dtype": "DT_INT32", "tensorShape": {}}}, "dtype": {"type": "DT_INT32"}}}, {"name": "StatefulPartitionedCall/ExpandDims_34/dim", "op": "Const", "attr": {"value": {"tensor": {"dtype": "DT_INT32", "tensorShape": {}}}, "dtype": {"type": "DT_INT32"}}}, {"name": "StatefulPartitionedCall/onnx_tf_prefix_/transformer_encoder/layers.1/self_attn/Concat_8/axis", "op": "Const", "attr": {"value": {"tensor": {"dtype": "DT_INT32", "tensorShape": {}}}, "dtype": {"type": "DT_INT32"}}}, {"name": "StatefulPartitionedCall/Const_39", "op": "Const", "attr": {"value": {"tensor": {"dtype": "DT_INT64", "tensorShape": {}}}, "dtype": {"type": "DT_INT64"}}}, {"name": "StatefulPartitionedCall/GatherV2_20/axis", "op": "Const", "attr": {"value": {"tensor": {"dtype": "DT_INT32", "tensorShape": {}}}, "dtype": {"type": "DT_INT32"}}}, {"name": "StatefulPartitionedCall/zeros_29", "op": "Const", "attr": {"dtype": {"type": "DT_INT64"}, "value": {"tensor": {"dtype": "DT_INT64", "tensorShape": {}}}}}, {"name": "StatefulPartitionedCall/flatten_1/strided_slice/stack", "op": "Const", "attr": {"value": {"tensor": {"dtype": "DT_INT32", "tensorShape": {"dim": [{"size": "1"}]}}}, "dtype": {"type": "DT_INT32"}}}, {"name": "StatefulPartitionedCall/flatten_1/strided_slice/stack_1", "op": "Const", "attr": {"value": {"tensor": {"dtype": "DT_INT32", "tensorShape": {"dim": [{"size": "1"}]}}}, "dtype": {"type": "DT_INT32"}}}, {"name": "StatefulPartitionedCall/flatten_1/strided_slice/stack_2", "op": "Const", "attr": {"value": {"tensor": {"dtype": "DT_INT32", "tensorShape": {"dim": [{"size": "1"}]}}}, "dtype": {"type": "DT_INT32"}}}, {"name": "StatefulPartitionedCall/flatten_1/Reshape/shape/1", "op": "Const", "attr": {"value": {"tensor": {"dtype": "DT_INT32", "tensorShape": {}}}, "dtype": {"type": "DT_INT32"}}}, {"name": "StatefulPartitionedCall/transpose_1", "op": "Const", "attr": {"value": {"tensor": {"dtype": "DT_FLOAT", "tensorShape": {"dim": [{"size": "128"}, {"size": "128"}]}}}, "dtype": {"type": "DT_FLOAT"}}}, {"name": "StatefulPartitionedCall/mul_3", "op": "Const", "attr": {"value": {"tensor": {"dtype": "DT_FLOAT", "tensorShape": {"dim": [{"size": "128"}]}}}, "dtype": {"type": "DT_FLOAT"}}}, {"name": "StatefulPartitionedCall/assert_equal_19/All", "op": "Const", "attr": {"value": {"tensor": {"dtype": "DT_BOOL", "tensorShape": {}}}, "dtype": {"type": "DT_BOOL"}}}, {"name": "StatefulPartitionedCall/assert_equal_21/All", "op": "Const", "attr": {"value": {"tensor": {"dtype": "DT_BOOL", "tensorShape": {}}}, "dtype": {"type": "DT_BOOL"}}}, {"name": "StatefulPartitionedCall/assert_equal_23/All", "op": "Const", "attr": {"dtype": {"type": "DT_BOOL"}, "value": {"tensor": {"dtype": "DT_BOOL", "tensorShape": {}}}}}, {"name": "StatefulPartitionedCall/strided_slice_20/stack", "op": "Const", "attr": {"dtype": {"type": "DT_INT32"}, "value": {"tensor": {"dtype": "DT_INT32", "tensorShape": {"dim": [{"size": "1"}]}}}}}, {"name": "StatefulPartitionedCall/strided_slice_20/stack_1", "op": "Const", "attr": {"value": {"tensor": {"dtype": "DT_INT32", "tensorShape": {"dim": [{"size": "1"}]}}}, "dtype": {"type": "DT_INT32"}}}, {"name": "StatefulPartitionedCall/strided_slice_20/stack_2", "op": "Const", "attr": {"value": {"tensor": {"dtype": "DT_INT32", "tensorShape": {"dim": [{"size": "1"}]}}}, "dtype": {"type": "DT_INT32"}}}, {"name": "StatefulPartitionedCall/assert_equal_25/y", "op": "Const", "attr": {"value": {"tensor": {"dtype": "DT_BOOL", "tensorShape": {}}}, "dtype": {"type": "DT_BOOL"}}}, {"name": "StatefulPartitionedCall/strided_slice_22/stack", "op": "Const", "attr": {"value": {"tensor": {"dtype": "DT_INT32", "tensorShape": {"dim": [{"size": "1"}]}}}, "dtype": {"type": "DT_INT32"}}}, {"name": "StatefulPartitionedCall/strided_slice_22/stack_1", "op": "Const", "attr": {"value": {"tensor": {"dtype": "DT_INT32", "tensorShape": {"dim": [{"size": "1"}]}}}, "dtype": {"type": "DT_INT32"}}}, {"name": "StatefulPartitionedCall/strided_slice_22/stack_2", "op": "Const", "attr": {"value": {"tensor": {"dtype": "DT_INT32", "tensorShape": {"dim": [{"size": "1"}]}}}, "dtype": {"type": "DT_INT32"}}}, {"name": "StatefulPartitionedCall/assert_equal_27/y", "op": "Const", "attr": {"value": {"tensor": {"dtype": "DT_BOOL", "tensorShape": {}}}, "dtype": {"type": "DT_BOOL"}}}, {"name": "StatefulPartitionedCall/Cast_49", "op": "Const", "attr": {"dtype": {"type": "DT_INT64"}, "value": {"tensor": {"dtype": "DT_INT64", "tensorShape": {"dim": [{"size": "1"}]}}}}}, {"name": "StatefulPartitionedCall/SelectV2_25", "op": "Const", "attr": {"value": {"tensor": {"dtype": "DT_INT64", "tensorShape": {"dim": [{"size": "1"}]}}}, "dtype": {"type": "DT_INT64"}}}, {"name": "StatefulPartitionedCall/zeros_19", "op": "Const", "attr": {"value": {"tensor": {"dtype": "DT_INT64", "tensorShape": {}}}, "dtype": {"type": "DT_INT64"}}}, {"name": "StatefulPartitionedCall/Const_27", "op": "Const", "attr": {"value": {"tensor": {"dtype": "DT_INT64", "tensorShape": {}}}, "dtype": {"type": "DT_INT64"}}}, {"name": "StatefulPartitionedCall/Shape_41", "op": "Const", "attr": {"value": {"tensor": {"dtype": "DT_INT64", "tensorShape": {"dim": [{"size": "1"}]}}}, "dtype": {"type": "DT_INT64"}}}, {"name": "StatefulPartitionedCall/ExpandDims_38", "op": "Const", "attr": {"value": {"tensor": {"dtype": "DT_INT64", "tensorShape": {"dim": [{"size": "1"}, {"size": "1"}]}}}, "dtype": {"type": "DT_INT64"}}}, {"name": "StatefulPartitionedCall/Cast_46", "op": "Const", "attr": {"value": {"tensor": {"dtype": "DT_INT64", "tensorShape": {"dim": [{"size": "1"}]}}}, "dtype": {"type": "DT_INT64"}}}, {"name": "StatefulPartitionedCall/SelectV2_26", "op": "Const", "attr": {"value": {"tensor": {"dtype": "DT_INT64", "tensorShape": {"dim": [{"size": "1"}]}}}, "dtype": {"type": "DT_INT64"}}}, {"name": "StatefulPartitionedCall/Const_26", "op": "Const", "attr": {"value": {"tensor": {"dtype": "DT_INT64", "tensorShape": {}}}, "dtype": {"type": "DT_INT64"}}}, {"name": "StatefulPartitionedCall/ones_5", "op": "Const", "attr": {"value": {"tensor": {"dtype": "DT_INT64", "tensorShape": {"dim": [{"size": "1"}]}}}, "dtype": {"type": "DT_INT64"}}}, {"name": "StatefulPartitionedCall/onnx_tf_prefix_/transformer_encoder/layers.1/self_attn/Constant_8", "op": "Const", "attr": {"value": {"tensor": {"dtype": "DT_INT64", "tensorShape": {"dim": [{"size": "1"}]}}}, "dtype": {"type": "DT_INT64"}}}, {"name": "StatefulPartitionedCall/SelectV2_21", "op": "Const", "attr": {"value": {"tensor": {"dtype": "DT_INT64", "tensorShape": {"dim": [{"size": "1"}]}}}, "dtype": {"type": "DT_INT64"}}}, {"name": "StatefulPartitionedCall/zeros_18", "op": "Const", "attr": {"dtype": {"type": "DT_INT64"}, "value": {"tensor": {"dtype": "DT_INT64", "tensorShape": {}}}}}, {"name": "StatefulPartitionedCall/Const_25", "op": "Const", "attr": {"value": {"tensor": {"dtype": "DT_INT64", "tensorShape": {}}}, "dtype": {"type": "DT_INT64"}}}, {"name": "StatefulPartitionedCall/Shape_40", "op": "Const", "attr": {"dtype": {"type": "DT_INT64"}, "value": {"tensor": {"dtype": "DT_INT64", "tensorShape": {"dim": [{"size": "1"}]}}}}}, {"name": "StatefulPartitionedCall/ExpandDims_28", "op": "Const", "attr": {"value": {"tensor": {"dtype": "DT_INT64", "tensorShape": {"dim": [{"size": "1"}, {"size": "1"}]}}}, "dtype": {"type": "DT_INT64"}}}, {"name": "StatefulPartitionedCall/Cast_43", "op": "Const", "attr": {"value": {"tensor": {"dtype": "DT_INT64", "tensorShape": {"dim": [{"size": "1"}]}}}, "dtype": {"type": "DT_INT64"}}}, {"name": "StatefulPartitionedCall/SelectV2_22", "op": "Const", "attr": {"dtype": {"type": "DT_INT64"}, "value": {"tensor": {"dtype": "DT_INT64", "tensorShape": {"dim": [{"size": "1"}]}}}}}, {"name": "StatefulPartitionedCall/Const_24", "op": "Const", "attr": {"value": {"tensor": {"dtype": "DT_INT64", "tensorShape": {}}}, "dtype": {"type": "DT_INT64"}}}, {"name": "StatefulPartitionedCall/ones_4", "op": "Const", "attr": {"value": {"tensor": {"dtype": "DT_INT64", "tensorShape": {"dim": [{"size": "1"}]}}}, "dtype": {"type": "DT_INT64"}}}, {"name": "StatefulPartitionedCall/ExpandDims_37/dim", "op": "Const", "attr": {"value": {"tensor": {"dtype": "DT_INT32", "tensorShape": {}}}, "dtype": {"type": "DT_INT32"}}}, {"name": "unknown_18", "op": "Const", "attr": {"dtype": {"type": "DT_FLOAT"}, "value": {"tensor": {"dtype": "DT_FLOAT", "tensorShape": {"dim": [{"size": "384"}]}}}}}, {"name": "unknown_15", "op": "Const", "attr": {"value": {"tensor": {"dtype": "DT_FLOAT", "tensorShape": {"dim": [{"size": "128"}]}}}, "dtype": {"type": "DT_FLOAT"}}}, {"name": "StatefulPartitionedCall/onnx_tf_prefix_/transformer_encoder/layers.0/norm2/ReduceMean_1/reduction_indices", "op": "Const", "attr": {"value": {"tensor": {"dtype": "DT_INT32", "tensorShape": {}}}, "dtype": {"type": "DT_INT32"}}}, {"name": "StatefulPartitionedCall/onnx_tf_prefix_/transformer_encoder/layers.0/norm2/Constant_1", "op": "Const", "attr": {"value": {"tensor": {"dtype": "DT_FLOAT", "tensorShape": {}}}, "dtype": {"type": "DT_FLOAT"}}}, {"name": "unknown_14", "op": "Const", "attr": {"value": {"tensor": {"dtype": "DT_FLOAT", "tensorShape": {"dim": [{"size": "128"}]}}}, "dtype": {"type": "DT_FLOAT"}}}, {"name": "unknown_12", "op": "Const", "attr": {"value": {"tensor": {"dtype": "DT_FLOAT", "tensorShape": {"dim": [{"size": "512"}]}}}, "dtype": {"type": "DT_FLOAT"}}}, {"name": "unknown_9", "op": "Const", "attr": {"value": {"tensor": {"dtype": "DT_FLOAT", "tensorShape": {"dim": [{"size": "128"}]}}}, "dtype": {"type": "DT_FLOAT"}}}, {"name": "StatefulPartitionedCall/Cast_35", "op": "Const", "attr": {"value": {"tensor": {"dtype": "DT_INT64", "tensorShape": {"dim": [{"size": "1"}]}}}, "dtype": {"type": "DT_INT64"}}}, {"name": "StatefulPartitionedCall/ExpandDims_8/dim", "op": "Const", "attr": {"value": {"tensor": {"dtype": "DT_INT32", "tensorShape": {}}}, "dtype": {"type": "DT_INT32"}}}, {"name": "StatefulPartitionedCall/ExpandDims_9/dim", "op": "Const", "attr": {"value": {"tensor": {"dtype": "DT_INT32", "tensorShape": {}}}, "dtype": {"type": "DT_INT32"}}}, {"name": "StatefulPartitionedCall/Cast_32", "op": "Const", "attr": {"value": {"tensor": {"dtype": "DT_INT64", "tensorShape": {"dim": [{"size": "1"}]}}}, "dtype": {"type": "DT_INT64"}}}, {"name": "StatefulPartitionedCall/Cast_30", "op": "Const", "attr": {"value": {"tensor": {"dtype": "DT_INT64", "tensorShape": {"dim": [{"size": "1"}]}}}, "dtype": {"type": "DT_INT64"}}}, {"name": "StatefulPartitionedCall/ExpandDims_5/dim", "op": "Const", "attr": {"value": {"tensor": {"dtype": "DT_INT32", "tensorShape": {}}}, "dtype": {"type": "DT_INT32"}}}, {"name": "StatefulPartitionedCall/onnx_tf_prefix_/transformer_encoder/layers.0/self_attn/Constant_24", "op": "Const", "attr": {"dtype": {"type": "DT_INT64"}, "value": {"tensor": {"dtype": "DT_INT64", "tensorShape": {"dim": [{"size": "1"}]}}}}}, {"name": "StatefulPartitionedCall/ExpandDims_24/dim", "op": "Const", "attr": {"value": {"tensor": {"dtype": "DT_INT32", "tensorShape": {}}}, "dtype": {"type": "DT_INT32"}}}, {"name": "StatefulPartitionedCall/ExpandDims_21/dim", "op": "Const", "attr": {"value": {"tensor": {"dtype": "DT_INT32", "tensorShape": {}}}, "dtype": {"type": "DT_INT32"}}}, {"name": "StatefulPartitionedCall/onnx_tf_prefix_/transformer_encoder/layers.0/self_attn/Concat_6/axis", "op": "Const", "attr": {"dtype": {"type": "DT_INT32"}, "value": {"tensor": {"dtype": "DT_INT32", "tensorShape": {}}}}}, {"name": "StatefulPartitionedCall/Const_20", "op": "Const", "attr": {"value": {"tensor": {"dtype": "DT_INT64", "tensorShape": {}}}, "dtype": {"type": "DT_INT64"}}}, {"name": "StatefulPartitionedCall/GatherV2_9/axis", "op": "Const", "attr": {"dtype": {"type": "DT_INT32"}, "value": {"tensor": {"dtype": "DT_INT32", "tensorShape": {}}}}}, {"name": "StatefulPartitionedCall/zeros_14", "op": "Const", "attr": {"value": {"tensor": {"dtype": "DT_INT64", "tensorShape": {}}}, "dtype": {"type": "DT_INT64"}}}, {"name": "StatefulPartitionedCall/onnx_tf_prefix_/transformer_encoder/layers.0/self_attn/Transpose_5/perm", "op": "Const", "attr": {"value": {"tensor": {"dtype": "DT_INT32", "tensorShape": {"dim": [{"size": "4"}]}}}, "dtype": {"type": "DT_INT32"}}}, {"name": "StatefulPartitionedCall/Cast_25", "op": "Const", "attr": {"value": {"tensor": {"dtype": "DT_INT64", "tensorShape": {"dim": [{"size": "1"}]}}}, "dtype": {"type": "DT_INT64"}}}, {"name": "StatefulPartitionedCall/Cast_22", "op": "Const", "attr": {"value": {"tensor": {"dtype": "DT_INT64", "tensorShape": {"dim": [{"size": "1"}]}}}, "dtype": {"type": "DT_INT64"}}}, {"name": "StatefulPartitionedCall/ExpandDims_2/dim", "op": "Const", "attr": {"value": {"tensor": {"dtype": "DT_INT32", "tensorShape": {}}}, "dtype": {"type": "DT_INT32"}}}, {"name": "StatefulPartitionedCall/ExpandDims_13/dim", "op": "Const", "attr": {"value": {"tensor": {"dtype": "DT_INT32", "tensorShape": {}}}, "dtype": {"type": "DT_INT32"}}}, {"name": "StatefulPartitionedCall/ExpandDims_17/dim", "op": "Const", "attr": {"value": {"tensor": {"dtype": "DT_INT32", "tensorShape": {}}}, "dtype": {"type": "DT_INT32"}}}, {"name": "StatefulPartitionedCall/onnx_tf_prefix_/transformer_encoder/layers.0/self_attn/Concat_2/axis", "op": "Const", "attr": {"value": {"tensor": {"dtype": "DT_INT32", "tensorShape": {}}}, "dtype": {"type": "DT_INT32"}}}, {"name": "StatefulPartitionedCall/Const_14", "op": "Const", "attr": {"value": {"tensor": {"dtype": "DT_INT64", "tensorShape": {}}}, "dtype": {"type": "DT_INT64"}}}, {"name": "StatefulPartitionedCall/GatherV2_5/axis", "op": "Const", "attr": {"value": {"tensor": {"dtype": "DT_INT32", "tensorShape": {}}}, "dtype": {"type": "DT_INT32"}}}, {"name": "StatefulPartitionedCall/zeros_9", "op": "Const", "attr": {"value": {"tensor": {"dtype": "DT_INT64", "tensorShape": {}}}, "dtype": {"type": "DT_INT64"}}}, {"name": "StatefulPartitionedCall/onnx_tf_prefix_/transformer_encoder/layers.0/self_attn/Transpose_2/perm", "op": "Const", "attr": {"value": {"tensor": {"dtype": "DT_INT32", "tensorShape": {"dim": [{"size": "3"}]}}}, "dtype": {"type": "DT_INT32"}}}, {"name": "StatefulPartitionedCall/ExpandDims_3/dim", "op": "Const", "attr": {"value": {"tensor": {"dtype": "DT_INT32", "tensorShape": {}}}, "dtype": {"type": "DT_INT32"}}}, {"name": "StatefulPartitionedCall/onnx_tf_prefix_/transformer_encoder/layers.0/self_attn/Constant_23", "op": "Const", "attr": {"value": {"tensor": {"dtype": "DT_INT64", "tensorShape": {"dim": [{"size": "1"}]}}}, "dtype": {"type": "DT_INT64"}}}, {"name": "StatefulPartitionedCall/ExpandDims_4/dim", "op": "Const", "attr": {"value": {"tensor": {"dtype": "DT_INT32", "tensorShape": {}}}, "dtype": {"type": "DT_INT32"}}}, {"name": "StatefulPartitionedCall/ExpandDims_20/dim", "op": "Const", "attr": {"dtype": {"type": "DT_INT32"}, "value": {"tensor": {"dtype": "DT_INT32", "tensorShape": {}}}}}, {"name": "StatefulPartitionedCall/onnx_tf_prefix_/transformer_encoder/layers.0/self_attn/Concat_5/axis", "op": "Const", "attr": {"value": {"tensor": {"dtype": "DT_INT32", "tensorShape": {}}}, "dtype": {"type": "DT_INT32"}}}, {"name": "StatefulPartitionedCall/Const_17", "op": "Const", "attr": {"value": {"tensor": {"dtype": "DT_INT64", "tensorShape": {}}}, "dtype": {"type": "DT_INT64"}}}, {"name": "StatefulPartitionedCall/GatherV2_8/axis", "op": "Const", "attr": {"dtype": {"type": "DT_INT32"}, "value": {"tensor": {"dtype": "DT_INT32", "tensorShape": {}}}}}, {"name": "StatefulPartitionedCall/zeros_12", "op": "Const", "attr": {"dtype": {"type": "DT_INT64"}, "value": {"tensor": {"dtype": "DT_INT64", "tensorShape": {}}}}}, {"name": "StatefulPartitionedCall/SelectV2_17", "op": "Const", "attr": {"dtype": {"type": "DT_INT64"}, "value": {"tensor": {"dtype": "DT_INT64", "tensorShape": {"dim": [{"size": "1"}]}}}}}, {"name": "StatefulPartitionedCall/zeros_13", "op": "Const", "attr": {"value": {"tensor": {"dtype": "DT_INT64", "tensorShape": {}}}, "dtype": {"type": "DT_INT64"}}}, {"name": "StatefulPartitionedCall/Const_19", "op": "Const", "attr": {"dtype": {"type": "DT_INT64"}, "value": {"tensor": {"dtype": "DT_INT64", "tensorShape": {}}}}}, {"name": "StatefulPartitionedCall/Shape_30", "op": "Const", "attr": {"value": {"tensor": {"dtype": "DT_INT64", "tensorShape": {"dim": [{"size": "1"}]}}}, "dtype": {"type": "DT_INT64"}}}, {"name": "StatefulPartitionedCall/ExpandDims_26", "op": "Const", "attr": {"dtype": {"type": "DT_INT64"}, "value": {"tensor": {"dtype": "DT_INT64", "tensorShape": {"dim": [{"size": "1"}, {"size": "1"}]}}}}}, {"name": "StatefulPartitionedCall/Cast_29", "op": "Const", "attr": {"dtype": {"type": "DT_INT64"}, "value": {"tensor": {"dtype": "DT_INT64", "tensorShape": {"dim": [{"size": "1"}]}}}}}, {"name": "StatefulPartitionedCall/SelectV2_18", "op": "Const", "attr": {"dtype": {"type": "DT_INT64"}, "value": {"tensor": {"dtype": "DT_INT64", "tensorShape": {"dim": [{"size": "1"}]}}}}}, {"name": "StatefulPartitionedCall/Const_18", "op": "Const", "attr": {"dtype": {"type": "DT_INT64"}, "value": {"tensor": {"dtype": "DT_INT64", "tensorShape": {}}}}}, {"name": "StatefulPartitionedCall/ones_3", "op": "Const", "attr": {"dtype": {"type": "DT_INT64"}, "value": {"tensor": {"dtype": "DT_INT64", "tensorShape": {"dim": [{"size": "1"}]}}}}}, {"name": "StatefulPartitionedCall/Cast_31", "op": "Const", "attr": {"dtype": {"type": "DT_INT64"}, "value": {"tensor": {"dtype": "DT_INT64", "tensorShape": {"dim": [{"size": "1"}]}}}}}, {"name": "StatefulPartitionedCall/Cast_24", "op": "Const", "attr": {"value": {"tensor": {"dtype": "DT_INT64", "tensorShape": {"dim": [{"size": "1"}]}}}, "dtype": {"type": "DT_INT64"}}}, {"name": "StatefulPartitionedCall/onnx_tf_prefix_/transformer_encoder/layers.0/self_attn/Constant_21", "op": "Const", "attr": {"dtype": {"type": "DT_INT64"}, "value": {"tensor": {"dtype": "DT_INT64", "tensorShape": {"dim": [{"size": "1"}]}}}}}, {"name": "StatefulPartitionedCall/ExpandDims_15/dim", "op": "Const", "attr": {"dtype": {"type": "DT_INT32"}, "value": {"tensor": {"dtype": "DT_INT32", "tensorShape": {}}}}}, {"name": "StatefulPartitionedCall/ExpandDims_19/dim", "op": "Const", "attr": {"value": {"tensor": {"dtype": "DT_INT32", "tensorShape": {}}}, "dtype": {"type": "DT_INT32"}}}, {"name": "StatefulPartitionedCall/onnx_tf_prefix_/transformer_encoder/layers.0/self_attn/Concat_4/axis", "op": "Const", "attr": {"dtype": {"type": "DT_INT32"}, "value": {"tensor": {"dtype": "DT_INT32", "tensorShape": {}}}}}, {"name": "StatefulPartitionedCall/Const_16", "op": "Const", "attr": {"value": {"tensor": {"dtype": "DT_INT64", "tensorShape": {}}}, "dtype": {"type": "DT_INT64"}}}, {"name": "StatefulPartitionedCall/GatherV2_7/axis", "op": "Const", "attr": {"dtype": {"type": "DT_INT32"}, "value": {"tensor": {"dtype": "DT_INT32", "tensorShape": {}}}}}, {"name": "StatefulPartitionedCall/zeros_11", "op": "Const", "attr": {"dtype": {"type": "DT_INT64"}, "value": {"tensor": {"dtype": "DT_INT64", "tensorShape": {}}}}}, {"name": "StatefulPartitionedCall/onnx_tf_prefix_/transformer_encoder/layers.0/self_attn/Transpose_4/perm", "op": "Const", "attr": {"dtype": {"type": "DT_INT32"}, "value": {"tensor": {"dtype": "DT_INT32", "tensorShape": {"dim": [{"size": "3"}]}}}}}, {"name": "StatefulPartitionedCall/ExpandDims_6/dim", "op": "Const", "attr": {"dtype": {"type": "DT_INT32"}, "value": {"tensor": {"dtype": "DT_INT32", "tensorShape": {}}}}}, {"name": "StatefulPartitionedCall/onnx_tf_prefix_/transformer_encoder/layers.0/self_attn/Constant_25", "op": "Const", "attr": {"dtype": {"type": "DT_INT64"}, "value": {"tensor": {"dtype": "DT_INT64", "tensorShape": {"dim": [{"size": "1"}]}}}}}, {"name": "StatefulPartitionedCall/Cast_23", "op": "Const", "attr": {"value": {"tensor": {"dtype": "DT_INT64", "tensorShape": {"dim": [{"size": "1"}]}}}, "dtype": {"type": "DT_INT64"}}}, {"name": "StatefulPartitionedCall/onnx_tf_prefix_/transformer_encoder/layers.0/self_attn/Constant_20", "op": "Const", "attr": {"value": {"tensor": {"dtype": "DT_INT64", "tensorShape": {"dim": [{"size": "1"}]}}}, "dtype": {"type": "DT_INT64"}}}, {"name": "StatefulPartitionedCall/onnx_tf_prefix_/transformer_encoder/layers.0/self_attn/Constant_19", "op": "Const", "attr": {"dtype": {"type": "DT_INT64"}, "value": {"tensor": {"dtype": "DT_INT64", "tensorShape": {}}}}}, {"name": "StatefulPartitionedCall/ExpandDims_14/dim", "op": "Const", "attr": {"dtype": {"type": "DT_INT32"}, "value": {"tensor": {"dtype": "DT_INT32", "tensorShape": {}}}}}, {"name": "StatefulPartitionedCall/ExpandDims_18/dim", "op": "Const", "attr": {"value": {"tensor": {"dtype": "DT_INT32", "tensorShape": {}}}, "dtype": {"type": "DT_INT32"}}}, {"name": "StatefulPartitionedCall/onnx_tf_prefix_/transformer_encoder/layers.0/self_attn/Concat_3/axis", "op": "Const", "attr": {"dtype": {"type": "DT_INT32"}, "value": {"tensor": {"dtype": "DT_INT32", "tensorShape": {}}}}}, {"name": "StatefulPartitionedCall/Const_15", "op": "Const", "attr": {"dtype": {"type": "DT_INT64"}, "value": {"tensor": {"dtype": "DT_INT64", "tensorShape": {}}}}}, {"name": "StatefulPartitionedCall/GatherV2_6/axis", "op": "Const", "attr": {"dtype": {"type": "DT_INT32"}, "value": {"tensor": {"dtype": "DT_INT32", "tensorShape": {}}}}}, {"name": "StatefulPartitionedCall/zeros_10", "op": "Const", "attr": {"dtype": {"type": "DT_INT64"}, "value": {"tensor": {"dtype": "DT_INT64", "tensorShape": {}}}}}, {"name": "StatefulPartitionedCall/onnx_tf_prefix_/transformer_encoder/layers.0/self_attn/Transpose_3/perm", "op": "Const", "attr": {"dtype": {"type": "DT_INT32"}, "value": {"tensor": {"dtype": "DT_INT32", "tensorShape": {"dim": [{"size": "3"}]}}}}}, {"name": "StatefulPartitionedCall/ExpandDims_25/dim", "op": "Const", "attr": {"dtype": {"type": "DT_INT32"}, "value": {"tensor": {"dtype": "DT_INT32", "tensorShape": {}}}}}, {"name": "ConstantFolding/StatefulPartitionedCall/onnx_tf_prefix_/transformer_encoder/layers.0/self_attn/Div_recip", "op": "Const", "attr": {"dtype": {"type": "DT_DOUBLE"}, "value": {"tensor": {"dtype": "DT_DOUBLE", "tensorShape": {}}}}}, {"name": "StatefulPartitionedCall/ExpandDims_22/dim", "op": "Const", "attr": {"value": {"tensor": {"dtype": "DT_INT32", "tensorShape": {}}}, "dtype": {"type": "DT_INT32"}}}, {"name": "StatefulPartitionedCall/onnx_tf_prefix_/transformer_encoder/layers.0/self_attn/Concat_7/axis", "op": "Const", "attr": {"dtype": {"type": "DT_INT32"}, "value": {"tensor": {"dtype": "DT_INT32", "tensorShape": {}}}}}, {"name": "StatefulPartitionedCall/Const_21", "op": "Const", "attr": {"dtype": {"type": "DT_INT64"}, "value": {"tensor": {"dtype": "DT_INT64", "tensorShape": {}}}}}, {"name": "StatefulPartitionedCall/GatherV2_10/axis", "op": "Const", "attr": {"dtype": {"type": "DT_INT32"}, "value": {"tensor": {"dtype": "DT_INT32", "tensorShape": {}}}}}, {"name": "StatefulPartitionedCall/zeros_15", "op": "Const", "attr": {"dtype": {"type": "DT_INT64"}, "value": {"tensor": {"dtype": "DT_INT64", "tensorShape": {}}}}}, {"name": "StatefulPartitionedCall/onnx_tf_prefix_/transformer_encoder/layers.0/self_attn/Transpose_6/perm", "op": "Const", "attr": {"dtype": {"type": "DT_INT32"}, "value": {"tensor": {"dtype": "DT_INT32", "tensorShape": {"dim": [{"size": "4"}]}}}}}, {"name": "StatefulPartitionedCall/ExpandDims_16/dim", "op": "Const", "attr": {"value": {"tensor": {"dtype": "DT_INT32", "tensorShape": {}}}, "dtype": {"type": "DT_INT32"}}}, {"name": "StatefulPartitionedCall/ExpandDims_7/dim", "op": "Const", "attr": {"dtype": {"type": "DT_INT32"}, "value": {"tensor": {"dtype": "DT_INT32", "tensorShape": {}}}}}, {"name": "StatefulPartitionedCall/onnx_tf_prefix_/transformer_encoder/layers.0/self_attn/Concat_8/axis", "op": "Const", "attr": {"dtype": {"type": "DT_INT32"}, "value": {"tensor": {"dtype": "DT_INT32", "tensorShape": {}}}}}, {"name": "StatefulPartitionedCall/Const_22", "op": "Const", "attr": {"value": {"tensor": {"dtype": "DT_INT64", "tensorShape": {}}}, "dtype": {"type": "DT_INT64"}}}, {"name": "StatefulPartitionedCall/GatherV2_11/axis", "op": "Const", "attr": {"value": {"tensor": {"dtype": "DT_INT32", "tensorShape": {}}}, "dtype": {"type": "DT_INT32"}}}, {"name": "StatefulPartitionedCall/zeros_16", "op": "Const", "attr": {"dtype": {"type": "DT_INT64"}, "value": {"tensor": {"dtype": "DT_INT64", "tensorShape": {}}}}}, {"name": "StatefulPartitionedCall/flatten/strided_slice/stack", "op": "Const", "attr": {"value": {"tensor": {"dtype": "DT_INT32", "tensorShape": {"dim": [{"size": "1"}]}}}, "dtype": {"type": "DT_INT32"}}}, {"name": "StatefulPartitionedCall/flatten/strided_slice/stack_1", "op": "Const", "attr": {"dtype": {"type": "DT_INT32"}, "value": {"tensor": {"dtype": "DT_INT32", "tensorShape": {"dim": [{"size": "1"}]}}}}}, {"name": "StatefulPartitionedCall/flatten/strided_slice/stack_2", "op": "Const", "attr": {"dtype": {"type": "DT_INT32"}, "value": {"tensor": {"dtype": "DT_INT32", "tensorShape": {"dim": [{"size": "1"}]}}}}}, {"name": "StatefulPartitionedCall/flatten/Reshape/shape/1", "op": "Const", "attr": {"dtype": {"type": "DT_INT32"}, "value": {"tensor": {"dtype": "DT_INT32", "tensorShape": {}}}}}, {"name": "StatefulPartitionedCall/transpose", "op": "Const", "attr": {"dtype": {"type": "DT_FLOAT"}, "value": {"tensor": {"dtype": "DT_FLOAT", "tensorShape": {"dim": [{"size": "128"}, {"size": "128"}]}}}}}, {"name": "StatefulPartitionedCall/mul_1", "op": "Const", "attr": {"dtype": {"type": "DT_FLOAT"}, "value": {"tensor": {"dtype": "DT_FLOAT", "tensorShape": {"dim": [{"size": "128"}]}}}}}, {"name": "StatefulPartitionedCall/assert_equal_7/All", "op": "Const", "attr": {"dtype": {"type": "DT_BOOL"}, "value": {"tensor": {"dtype": "DT_BOOL", "tensorShape": {}}}}}, {"name": "StatefulPartitionedCall/onnx_tf_prefix_/pos_encoder/Constant_2", "op": "Const", "attr": {"value": {"tensor": {"dtype": "DT_INT64", "tensorShape": {}}}, "dtype": {"type": "DT_INT64"}}}, {"name": "StatefulPartitionedCall/strided_slice_6/stack", "op": "Const", "attr": {"value": {"tensor": {"dtype": "DT_INT32", "tensorShape": {"dim": [{"size": "1"}]}}}, "dtype": {"type": "DT_INT32"}}}, {"name": "StatefulPartitionedCall/strided_slice_6/stack_1", "op": "Const", "attr": {"dtype": {"type": "DT_INT32"}, "value": {"tensor": {"dtype": "DT_INT32", "tensorShape": {"dim": [{"size": "1"}]}}}}}, {"name": "StatefulPartitionedCall/strided_slice_6/stack_2", "op": "Const", "attr": {"value": {"tensor": {"dtype": "DT_INT32", "tensorShape": {"dim": [{"size": "1"}]}}}, "dtype": {"type": "DT_INT32"}}}, {"name": "StatefulPartitionedCall/assert_equal_9/y", "op": "Const", "attr": {"dtype": {"type": "DT_BOOL"}, "value": {"tensor": {"dtype": "DT_BOOL", "tensorShape": {}}}}}, {"name": "StatefulPartitionedCall/onnx_tf_prefix_/pos_encoder/Constant", "op": "Const", "attr": {"value": {"tensor": {"dtype": "DT_INT64", "tensorShape": {}}}, "dtype": {"type": "DT_INT64"}}}, {"name": "StatefulPartitionedCall/strided_slice_8/stack", "op": "Const", "attr": {"value": {"tensor": {"dtype": "DT_INT32", "tensorShape": {"dim": [{"size": "1"}]}}}, "dtype": {"type": "DT_INT32"}}}, {"name": "StatefulPartitionedCall/strided_slice_8/stack_1", "op": "Const", "attr": {"value": {"tensor": {"dtype": "DT_INT32", "tensorShape": {"dim": [{"size": "1"}]}}}, "dtype": {"type": "DT_INT32"}}}, {"name": "StatefulPartitionedCall/strided_slice_8/stack_2", "op": "Const", "attr": {"value": {"tensor": {"dtype": "DT_INT32", "tensorShape": {"dim": [{"size": "1"}]}}}, "dtype": {"type": "DT_INT32"}}}, {"name": "StatefulPartitionedCall/assert_equal_11/y", "op": "Const", "attr": {"value": {"tensor": {"dtype": "DT_BOOL", "tensorShape": {}}}, "dtype": {"type": "DT_BOOL"}}}, {"name": "StatefulPartitionedCall/onnx_tf_prefix_/transformer_encoder/layers.0/self_attn/Constant_2", "op": "Const", "attr": {"dtype": {"type": "DT_INT64"}, "value": {"tensor": {"dtype": "DT_INT64", "tensorShape": {}}}}}, {"name": "StatefulPartitionedCall/Cast_21", "op": "Const", "attr": {"value": {"tensor": {"dtype": "DT_INT64", "tensorShape": {"dim": [{"size": "1"}]}}}, "dtype": {"type": "DT_INT64"}}}, {"name": "StatefulPartitionedCall/SelectV2_9", "op": "Const", "attr": {"dtype": {"type": "DT_INT64"}, "value": {"tensor": {"dtype": "DT_INT64", "tensorShape": {"dim": [{"size": "1"}]}}}}}, {"name": "StatefulPartitionedCall/zeros_6", "op": "Const", "attr": {"dtype": {"type": "DT_INT64"}, "value": {"tensor": {"dtype": "DT_INT64", "tensorShape": {}}}}}, {"name": "StatefulPartitionedCall/Const_10", "op": "Const", "attr": {"dtype": {"type": "DT_INT64"}, "value": {"tensor": {"dtype": "DT_INT64", "tensorShape": {}}}}}, {"name": "StatefulPartitionedCall/Shape_10", "op": "Const", "attr": {"dtype": {"type": "DT_INT64"}, "value": {"tensor": {"dtype": "DT_INT64", "tensorShape": {"dim": [{"size": "1"}]}}}}}, {"name": "StatefulPartitionedCall/ExpandDims_11", "op": "Const", "attr": {"dtype": {"type": "DT_INT64"}, "value": {"tensor": {"dtype": "DT_INT64", "tensorShape": {"dim": [{"size": "1"}, {"size": "1"}]}}}}}, {"name": "StatefulPartitionedCall/Cast_18", "op": "Const", "attr": {"value": {"tensor": {"dtype": "DT_INT64", "tensorShape": {"dim": [{"size": "1"}]}}}, "dtype": {"type": "DT_INT64"}}}, {"name": "StatefulPartitionedCall/SelectV2_10", "op": "Const", "attr": {"dtype": {"type": "DT_INT64"}, "value": {"tensor": {"dtype": "DT_INT64", "tensorShape": {"dim": [{"size": "1"}]}}}}}, {"name": "StatefulPartitionedCall/Const_9", "op": "Const", "attr": {"value": {"tensor": {"dtype": "DT_INT64", "tensorShape": {}}}, "dtype": {"type": "DT_INT64"}}}, {"name": "StatefulPartitionedCall/ones_1", "op": "Const", "attr": {"value": {"tensor": {"dtype": "DT_INT64", "tensorShape": {"dim": [{"size": "1"}]}}}, "dtype": {"type": "DT_INT64"}}}, {"name": "StatefulPartitionedCall/onnx_tf_prefix_/transformer_encoder/layers.0/self_attn/Constant_9", "op": "Const", "attr": {"value": {"tensor": {"dtype": "DT_INT64", "tensorShape": {"dim": [{"size": "1"}]}}}, "dtype": {"type": "DT_INT64"}}}, {"name": "StatefulPartitionedCall/SelectV2_5", "op": "Const", "attr": {"dtype": {"type": "DT_INT64"}, "value": {"tensor": {"dtype": "DT_INT64", "tensorShape": {"dim": [{"size": "1"}]}}}}}, {"name": "StatefulPartitionedCall/zeros_5", "op": "Const", "attr": {"dtype": {"type": "DT_INT64"}, "value": {"tensor": {"dtype": "DT_INT64", "tensorShape": {}}}}}, {"name": "StatefulPartitionedCall/Const_8", "op": "Const", "attr": {"dtype": {"type": "DT_INT64"}, "value": {"tensor": {"dtype": "DT_INT64", "tensorShape": {}}}}}, {"name": "StatefulPartitionedCall/Shape_9", "op": "Const", "attr": {"dtype": {"type": "DT_INT64"}, "value": {"tensor": {"dtype": "DT_INT64", "tensorShape": {"dim": [{"size": "1"}]}}}}}, {"name": "StatefulPartitionedCall/ExpandDims_1", "op": "Const", "attr": {"dtype": {"type": "DT_INT64"}, "value": {"tensor": {"dtype": "DT_INT64", "tensorShape": {"dim": [{"size": "1"}, {"size": "1"}]}}}}}, {"name": "StatefulPartitionedCall/Cast_15", "op": "Const", "attr": {"value": {"tensor": {"dtype": "DT_INT64", "tensorShape": {"dim": [{"size": "1"}]}}}, "dtype": {"type": "DT_INT64"}}}, {"name": "StatefulPartitionedCall/SelectV2_6", "op": "Const", "attr": {"dtype": {"type": "DT_INT64"}, "value": {"tensor": {"dtype": "DT_INT64", "tensorShape": {"dim": [{"size": "1"}]}}}}}, {"name": "StatefulPartitionedCall/Const_7", "op": "Const", "attr": {"value": {"tensor": {"dtype": "DT_INT64", "tensorShape": {}}}, "dtype": {"type": "DT_INT64"}}}, {"name": "StatefulPartitionedCall/ones", "op": "Const", "attr": {"value": {"tensor": {"dtype": "DT_INT64", "tensorShape": {"dim": [{"size": "1"}]}}}, "dtype": {"type": "DT_INT64"}}}, {"name": "StatefulPartitionedCall/ExpandDims_10/dim", "op": "Const", "attr": {"value": {"tensor": {"dtype": "DT_INT32", "tensorShape": {}}}, "dtype": {"type": "DT_INT32"}}}, {"name": "unknown_6", "op": "Const", "attr": {"dtype": {"type": "DT_FLOAT"}, "value": {"tensor": {"dtype": "DT_FLOAT", "tensorShape": {"dim": [{"size": "384"}]}}}}}, {"name": "unknown_4", "op": "Const", "attr": {"dtype": {"type": "DT_FLOAT"}, "value": {"tensor": {"dtype": "DT_FLOAT", "tensorShape": {"dim": [{"size": "39"}, {"size": "128"}]}}}}}, {"name": "StatefulPartitionedCall/onnx_tf_prefix_/Constant", "op": "Const", "attr": {"dtype": {"type": "DT_FLOAT"}, "value": {"tensor": {"dtype": "DT_FLOAT", "tensorShape": {}}}}}, {"name": "StatefulPartitionedCall/onnx_tf_prefix_/pos_encoder/Mul_transpose/perm", "op": "Const", "attr": {"dtype": {"type": "DT_INT32"}, "value": {"tensor": {"dtype": "DT_INT32", "tensorShape": {"dim": [{"size": "3"}]}}}}}, {"name": "unknown", "op": "Const", "attr": {"dtype": {"type": "DT_FLOAT"}, "value": {"tensor": {"dtype": "DT_FLOAT", "tensorShape": {"dim": [{"size": "1"}, {"size": "40"}, {"size": "128"}]}}}}}, {"name": "StatefulPartitionedCall/SelectV2_1", "op": "Const", "attr": {"value": {"tensor": {"dtype": "DT_INT64", "tensorShape": {"dim": [{"size": "1"}]}}}, "dtype": {"type": "DT_INT64"}}}, {"name": "StatefulPartitionedCall/zeros", "op": "Const", "attr": {"value": {"tensor": {"dtype": "DT_INT64", "tensorShape": {}}}, "dtype": {"type": "DT_INT64"}}}, {"name": "StatefulPartitionedCall/Const_1", "op": "Const", "attr": {"value": {"tensor": {"dtype": "DT_INT64", "tensorShape": {}}}, "dtype": {"type": "DT_INT64"}}}, {"name": "StatefulPartitionedCall/Shape", "op": "Const", "attr": {"dtype": {"type": "DT_INT64"}, "value": {"tensor": {"dtype": "DT_INT64", "tensorShape": {"dim": [{"size": "3"}]}}}}}, {"name": "StatefulPartitionedCall/SelectV2_2", "op": "Const", "attr": {"dtype": {"type": "DT_INT64"}, "value": {"tensor": {"dtype": "DT_INT64", "tensorShape": {"dim": [{"size": "1"}]}}}}}, {"name": "StatefulPartitionedCall/Const", "op": "Const", "attr": {"value": {"tensor": {"dtype": "DT_INT64", "tensorShape": {}}}, "dtype": {"type": "DT_INT64"}}}, {"name": "StatefulPartitionedCall/ExpandDims", "op": "Const", "attr": {"dtype": {"type": "DT_INT64"}, "value": {"tensor": {"dtype": "DT_INT64", "tensorShape": {"dim": [{"size": "1"}, {"size": "1"}]}}}}}, {"name": "StatefulPartitionedCall/Cast_1", "op": "Const", "attr": {"dtype": {"type": "DT_INT64"}, "value": {"tensor": {"dtype": "DT_INT64", "tensorShape": {"dim": [{"size": "1"}]}}}}}, {"name": "unknown_3", "op": "Const", "attr": {"dtype": {"type": "DT_INT64"}, "value": {"tensor": {"dtype": "DT_INT64", "tensorShape": {"dim": [{"size": "1"}]}}}}}, {"name": "StatefulPartitionedCall/Const_2", "op": "Const", "attr": {"dtype": {"type": "DT_INT64"}, "value": {"tensor": {"dtype": "DT_INT64", "tensorShape": {}}}}}, {"name": "StatefulPartitionedCall/onnx_tf_prefix_/pos_encoder/Slice_transpose/perm", "op": "Const", "attr": {"dtype": {"type": "DT_INT32"}, "value": {"tensor": {"dtype": "DT_INT32", "tensorShape": {"dim": [{"size": "3"}]}}}}}, {"name": "StatefulPartitionedCall/onnx_tf_prefix_/pos_encoder/Add_transpose_back/perm", "op": "Const", "attr": {"dtype": {"type": "DT_INT32"}, "value": {"tensor": {"dtype": "DT_INT32", "tensorShape": {"dim": [{"size": "3"}]}}}}}, {"name": "StatefulPartitionedCall/onnx_tf_prefix_/transformer_encoder/layers.0/self_attn/Transpose/perm", "op": "Const", "attr": {"value": {"tensor": {"dtype": "DT_INT32", "tensorShape": {"dim": [{"size": "3"}]}}}, "dtype": {"type": "DT_INT32"}}}, {"name": "unknown_5", "op": "Const", "attr": {"dtype": {"type": "DT_FLOAT"}, "value": {"tensor": {"dtype": "DT_FLOAT", "tensorShape": {"dim": [{"size": "128"}, {"size": "384"}]}}}}}, {"name": "StatefulPartitionedCall/SelectV2_13", "op": "Const", "attr": {"value": {"tensor": {"dtype": "DT_INT64", "tensorShape": {"dim": [{"size": "1"}]}}}, "dtype": {"type": "DT_INT64"}}}, {"name": "StatefulPartitionedCall/zeros_7", "op": "Const", "attr": {"dtype": {"type": "DT_INT64"}, "value": {"tensor": {"dtype": "DT_INT64", "tensorShape": {}}}}}, {"name": "StatefulPartitionedCall/Const_12", "op": "Const", "attr": {"dtype": {"type": "DT_INT64"}, "value": {"tensor": {"dtype": "DT_INT64", "tensorShape": {}}}}}, {"name": "StatefulPartitionedCall/Shape_12", "op": "Const", "attr": {"value": {"tensor": {"dtype": "DT_INT64", "tensorShape": {"dim": [{"size": "1"}]}}}, "dtype": {"type": "DT_INT64"}}}, {"name": "StatefulPartitionedCall/ExpandDims_12", "op": "Const", "attr": {"dtype": {"type": "DT_INT64"}, "value": {"tensor": {"dtype": "DT_INT64", "tensorShape": {"dim": [{"size": "1"}, {"size": "1"}]}}}}}, {"name": "StatefulPartitionedCall/Cast_20", "op": "Const", "attr": {"dtype": {"type": "DT_INT64"}, "value": {"tensor": {"dtype": "DT_INT64", "tensorShape": {"dim": [{"size": "1"}]}}}}}, {"name": "StatefulPartitionedCall/SelectV2_14", "op": "Const", "attr": {"dtype": {"type": "DT_INT64"}, "value": {"tensor": {"dtype": "DT_INT64", "tensorShape": {"dim": [{"size": "1"}]}}}}}, {"name": "StatefulPartitionedCall/Const_11", "op": "Const", "attr": {"dtype": {"type": "DT_INT64"}, "value": {"tensor": {"dtype": "DT_INT64", "tensorShape": {}}}}}, {"name": "StatefulPartitionedCall/ones_2", "op": "Const", "attr": {"dtype": {"type": "DT_INT64"}, "value": {"tensor": {"dtype": "DT_INT64", "tensorShape": {"dim": [{"size": "1"}]}}}}}, {"name": "StatefulPartitionedCall/onnx_tf_prefix_/transformer_encoder/layers.0/self_attn/Concat_1/axis", "op": "Const", "attr": {"dtype": {"type": "DT_INT32"}, "value": {"tensor": {"dtype": "DT_INT32", "tensorShape": {}}}}}, {"name": "StatefulPartitionedCall/Const_13", "op": "Const", "attr": {"dtype": {"type": "DT_INT64"}, "value": {"tensor": {"dtype": "DT_INT64", "tensorShape": {}}}}}, {"name": "StatefulPartitionedCall/GatherV2_4/axis", "op": "Const", "attr": {"dtype": {"type": "DT_INT32"}, "value": {"tensor": {"dtype": "DT_INT32", "tensorShape": {}}}}}, {"name": "StatefulPartitionedCall/zeros_8", "op": "Const", "attr": {"dtype": {"type": "DT_INT64"}, "value": {"tensor": {"dtype": "DT_INT64", "tensorShape": {}}}}}, {"name": "StatefulPartitionedCall/ExpandDims_23/dim", "op": "Const", "attr": {"value": {"tensor": {"dtype": "DT_INT32", "tensorShape": {}}}, "dtype": {"type": "DT_INT32"}}}, {"name": "StatefulPartitionedCall/onnx_tf_prefix_/transformer_encoder/layers.0/self_attn/Transpose_1/perm", "op": "Const", "attr": {"value": {"tensor": {"dtype": "DT_INT32", "tensorShape": {"dim": [{"size": "5"}]}}}, "dtype": {"type": "DT_INT32"}}}, {"name": "StatefulPartitionedCall/strided_slice_10/stack", "op": "Const", "attr": {"value": {"tensor": {"dtype": "DT_INT32", "tensorShape": {"dim": [{"size": "1"}]}}}, "dtype": {"type": "DT_INT32"}}}, {"name": "StatefulPartitionedCall/strided_slice_10/stack_1", "op": "Const", "attr": {"value": {"tensor": {"dtype": "DT_INT32", "tensorShape": {"dim": [{"size": "1"}]}}}, "dtype": {"type": "DT_INT32"}}}, {"name": "StatefulPartitionedCall/strided_slice_10/stack_2", "op": "Const", "attr": {"value": {"tensor": {"dtype": "DT_INT32", "tensorShape": {"dim": [{"size": "1"}]}}}, "dtype": {"type": "DT_INT32"}}}, {"name": "StatefulPartitionedCall/assert_equal_13/y", "op": "Const", "attr": {"dtype": {"type": "DT_BOOL"}, "value": {"tensor": {"dtype": "DT_BOOL", "tensorShape": {}}}}}, {"name": "StatefulPartitionedCall/assert_equal_15/All", "op": "Const", "attr": {"dtype": {"type": "DT_BOOL"}, "value": {"tensor": {"dtype": "DT_BOOL", "tensorShape": {}}}}}, {"name": "StatefulPartitionedCall/assert_equal_17/All", "op": "Const", "attr": {"dtype": {"type": "DT_BOOL"}, "value": {"tensor": {"dtype": "DT_BOOL", "tensorShape": {}}}}}, {"name": "StatefulPartitionedCall/ExpandDims_27/dim", "op": "Const", "attr": {"dtype": {"type": "DT_INT32"}, "value": {"tensor": {"dtype": "DT_INT32", "tensorShape": {}}}}}, {"name": "StatefulPartitionedCall/onnx_tf_prefix_/transformer_encoder/layers.0/self_attn/Concat_9/axis", "op": "Const", "attr": {"value": {"tensor": {"dtype": "DT_INT32", "tensorShape": {}}}, "dtype": {"type": "DT_INT32"}}}, {"name": "StatefulPartitionedCall/Const_23", "op": "Const", "attr": {"dtype": {"type": "DT_INT64"}, "value": {"tensor": {"dtype": "DT_INT64", "tensorShape": {}}}}}, {"name": "StatefulPartitionedCall/GatherV2_12/axis", "op": "Const", "attr": {"dtype": {"type": "DT_INT32"}, "value": {"tensor": {"dtype": "DT_INT32", "tensorShape": {}}}}}, {"name": "StatefulPartitionedCall/zeros_17", "op": "Const", "attr": {"dtype": {"type": "DT_INT64"}, "value": {"tensor": {"dtype": "DT_INT64", "tensorShape": {}}}}}, {"name": "StatefulPartitionedCall/onnx_tf_prefix_/transformer_encoder/layers.0/self_attn/Transpose_7/perm", "op": "Const", "attr": {"value": {"tensor": {"dtype": "DT_INT32", "tensorShape": {"dim": [{"size": "3"}]}}}, "dtype": {"type": "DT_INT32"}}}, {"name": "StatefulPartitionedCall/onnx_tf_prefix_/transformer_encoder/layers.0/norm1/ReduceMean/reduction_indices", "op": "Const", "attr": {"dtype": {"type": "DT_INT32"}, "value": {"tensor": {"dtype": "DT_INT32", "tensorShape": {}}}}}, {"name": "StatefulPartitionedCall/onnx_tf_prefix_/transformer_encoder/layers.0/norm1/ReduceMean_1/reduction_indices", "op": "Const", "attr": {"dtype": {"type": "DT_INT32"}, "value": {"tensor": {"dtype": "DT_INT32", "tensorShape": {}}}}}, {"name": "StatefulPartitionedCall/onnx_tf_prefix_/transformer_encoder/layers.0/norm1/Constant_1", "op": "Const", "attr": {"dtype": {"type": "DT_FLOAT"}, "value": {"tensor": {"dtype": "DT_FLOAT", "tensorShape": {}}}}}, {"name": "unknown_10", "op": "Const", "attr": {"dtype": {"type": "DT_FLOAT"}, "value": {"tensor": {"dtype": "DT_FLOAT", "tensorShape": {"dim": [{"size": "128"}]}}}}}, {"name": "unknown_11", "op": "Const", "attr": {"value": {"tensor": {"dtype": "DT_FLOAT", "tensorShape": {"dim": [{"size": "128"}, {"size": "512"}]}}}, "dtype": {"type": "DT_FLOAT"}}}, {"name": "unknown_13", "op": "Const", "attr": {"dtype": {"type": "DT_FLOAT"}, "value": {"tensor": {"dtype": "DT_FLOAT", "tensorShape": {"dim": [{"size": "512"}, {"size": "128"}]}}}}}, {"name": "StatefulPartitionedCall/onnx_tf_prefix_/transformer_encoder/layers.0/norm2/ReduceMean/reduction_indices", "op": "Const", "attr": {"value": {"tensor": {"dtype": "DT_INT32", "tensorShape": {}}}, "dtype": {"type": "DT_INT32"}}}, {"name": "unknown_16", "op": "Const", "attr": {"dtype": {"type": "DT_FLOAT"}, "value": {"tensor": {"dtype": "DT_FLOAT", "tensorShape": {"dim": [{"size": "128"}]}}}}}, {"name": "StatefulPartitionedCall/onnx_tf_prefix_/transformer_encoder/layers.1/self_attn/Transpose/perm", "op": "Const", "attr": {"value": {"tensor": {"dtype": "DT_INT32", "tensorShape": {"dim": [{"size": "3"}]}}}, "dtype": {"type": "DT_INT32"}}}, {"name": "unknown_17", "op": "Const", "attr": {"value": {"tensor": {"dtype": "DT_FLOAT", "tensorShape": {"dim": [{"size": "128"}, {"size": "384"}]}}}, "dtype": {"type": "DT_FLOAT"}}}, {"name": "StatefulPartitionedCall/SelectV2_29", "op": "Const", "attr": {"dtype": {"type": "DT_INT64"}, "value": {"tensor": {"dtype": "DT_INT64", "tensorShape": {"dim": [{"size": "1"}]}}}}}, {"name": "StatefulPartitionedCall/zeros_20", "op": "Const", "attr": {"dtype": {"type": "DT_INT64"}, "value": {"tensor": {"dtype": "DT_INT64", "tensorShape": {}}}}}, {"name": "StatefulPartitionedCall/Const_29", "op": "Const", "attr": {"dtype": {"type": "DT_INT64"}, "value": {"tensor": {"dtype": "DT_INT64", "tensorShape": {}}}}}, {"name": "StatefulPartitionedCall/Shape_43", "op": "Const", "attr": {"dtype": {"type": "DT_INT64"}, "value": {"tensor": {"dtype": "DT_INT64", "tensorShape": {"dim": [{"size": "1"}]}}}}}, {"name": "StatefulPartitionedCall/ExpandDims_39", "op": "Const", "attr": {"dtype": {"type": "DT_INT64"}, "value": {"tensor": {"dtype": "DT_INT64", "tensorShape": {"dim": [{"size": "1"}, {"size": "1"}]}}}}}, {"name": "StatefulPartitionedCall/Cast_48", "op": "Const", "attr": {"value": {"tensor": {"dtype": "DT_INT64", "tensorShape": {"dim": [{"size": "1"}]}}}, "dtype": {"type": "DT_INT64"}}}, {"name": "StatefulPartitionedCall/SelectV2_30", "op": "Const", "attr": {"value": {"tensor": {"dtype": "DT_INT64", "tensorShape": {"dim": [{"size": "1"}]}}}, "dtype": {"type": "DT_INT64"}}}, {"name": "StatefulPartitionedCall/Const_28", "op": "Const", "attr": {"dtype": {"type": "DT_INT64"}, "value": {"tensor": {"dtype": "DT_INT64", "tensorShape": {}}}}}, {"name": "StatefulPartitionedCall/ones_6", "op": "Const", "attr": {"dtype": {"type": "DT_INT64"}, "value": {"tensor": {"dtype": "DT_INT64", "tensorShape": {"dim": [{"size": "1"}]}}}}}, {"name": "StatefulPartitionedCall/onnx_tf_prefix_/transformer_encoder/layers.1/self_attn/Concat_1/axis", "op": "Const", "attr": {"dtype": {"type": "DT_INT32"}, "value": {"tensor": {"dtype": "DT_INT32", "tensorShape": {}}}}}, {"name": "StatefulPartitionedCall/Const_30", "op": "Const", "attr": {"dtype": {"type": "DT_INT64"}, "value": {"tensor": {"dtype": "DT_INT64", "tensorShape": {}}}}}, {"name": "StatefulPartitionedCall/GatherV2_13/axis", "op": "Const", "attr": {"value": {"tensor": {"dtype": "DT_INT32", "tensorShape": {}}}, "dtype": {"type": "DT_INT32"}}}, {"name": "StatefulPartitionedCall/zeros_21", "op": "Const", "attr": {"dtype": {"type": "DT_INT64"}, "value": {"tensor": {"dtype": "DT_INT64", "tensorShape": {}}}}}, {"name": "StatefulPartitionedCall/ExpandDims_50/dim", "op": "Const", "attr": {"dtype": {"type": "DT_INT32"}, "value": {"tensor": {"dtype": "DT_INT32", "tensorShape": {}}}}}, {"name": "StatefulPartitionedCall/onnx_tf_prefix_/transformer_encoder/layers.1/self_attn/Transpose_1/perm", "op": "Const", "attr": {"dtype": {"type": "DT_INT32"}, "value": {"tensor": {"dtype": "DT_INT32", "tensorShape": {"dim": [{"size": "5"}]}}}}}, {"name": "StatefulPartitionedCall/strided_slice_24/stack", "op": "Const", "attr": {"value": {"tensor": {"dtype": "DT_INT32", "tensorShape": {"dim": [{"size": "1"}]}}}, "dtype": {"type": "DT_INT32"}}}, {"name": "StatefulPartitionedCall/strided_slice_24/stack_1", "op": "Const", "attr": {"value": {"tensor": {"dtype": "DT_INT32", "tensorShape": {"dim": [{"size": "1"}]}}}, "dtype": {"type": "DT_INT32"}}}, {"name": "StatefulPartitionedCall/strided_slice_24/stack_2", "op": "Const", "attr": {"dtype": {"type": "DT_INT32"}, "value": {"tensor": {"dtype": "DT_INT32", "tensorShape": {"dim": [{"size": "1"}]}}}}}, {"name": "StatefulPartitionedCall/assert_equal_29/y", "op": "Const", "attr": {"dtype": {"type": "DT_BOOL"}, "value": {"tensor": {"dtype": "DT_BOOL", "tensorShape": {}}}}}, {"name": "StatefulPartitionedCall/assert_equal_31/All", "op": "Const", "attr": {"value": {"tensor": {"dtype": "DT_BOOL", "tensorShape": {}}}, "dtype": {"type": "DT_BOOL"}}}, {"name": "StatefulPartitionedCall/assert_equal_33/All", "op": "Const", "attr": {"dtype": {"type": "DT_BOOL"}, "value": {"tensor": {"dtype": "DT_BOOL", "tensorShape": {}}}}}, {"name": "StatefulPartitionedCall/ExpandDims_54/dim", "op": "Const", "attr": {"value": {"tensor": {"dtype": "DT_INT32", "tensorShape": {}}}, "dtype": {"type": "DT_INT32"}}}, {"name": "StatefulPartitionedCall/onnx_tf_prefix_/transformer_encoder/layers.1/self_attn/Concat_9/axis", "op": "Const", "attr": {"dtype": {"type": "DT_INT32"}, "value": {"tensor": {"dtype": "DT_INT32", "tensorShape": {}}}}}, {"name": "StatefulPartitionedCall/Const_40", "op": "Const", "attr": {"dtype": {"type": "DT_INT64"}, "value": {"tensor": {"dtype": "DT_INT64", "tensorShape": {}}}}}, {"name": "StatefulPartitionedCall/GatherV2_21/axis", "op": "Const", "attr": {"dtype": {"type": "DT_INT32"}, "value": {"tensor": {"dtype": "DT_INT32", "tensorShape": {}}}}}, {"name": "StatefulPartitionedCall/zeros_30", "op": "Const", "attr": {"dtype": {"type": "DT_INT64"}, "value": {"tensor": {"dtype": "DT_INT64", "tensorShape": {}}}}}, {"name": "StatefulPartitionedCall/onnx_tf_prefix_/transformer_encoder/layers.1/self_attn/Transpose_7/perm", "op": "Const", "attr": {"dtype": {"type": "DT_INT32"}, "value": {"tensor": {"dtype": "DT_INT32", "tensorShape": {"dim": [{"size": "3"}]}}}}}, {"name": "StatefulPartitionedCall/onnx_tf_prefix_/transformer_encoder/layers.1/norm1/ReduceMean/reduction_indices", "op": "Const", "attr": {"value": {"tensor": {"dtype": "DT_INT32", "tensorShape": {}}}, "dtype": {"type": "DT_INT32"}}}, {"name": "unknown_22", "op": "Const", "attr": {"value": {"tensor": {"dtype": "DT_FLOAT", "tensorShape": {"dim": [{"size": "128"}]}}}, "dtype": {"type": "DT_FLOAT"}}}, {"name": "unknown_23", "op": "Const", "attr": {"value": {"tensor": {"dtype": "DT_FLOAT", "tensorShape": {"dim": [{"size": "128"}, {"size": "512"}]}}}, "dtype": {"type": "DT_FLOAT"}}}, {"name": "unknown_25", "op": "Const", "attr": {"dtype": {"type": "DT_FLOAT"}, "value": {"tensor": {"dtype": "DT_FLOAT", "tensorShape": {"dim": [{"size": "512"}, {"size": "128"}]}}}}}, {"name": "StatefulPartitionedCall/onnx_tf_prefix_/transformer_encoder/layers.1/norm2/ReduceMean/reduction_indices", "op": "Const", "attr": {"dtype": {"type": "DT_INT32"}, "value": {"tensor": {"dtype": "DT_INT32", "tensorShape": {}}}}}, {"name": "unknown_28", "op": "Const", "attr": {"value": {"tensor": {"dtype": "DT_FLOAT", "tensorShape": {"dim": [{"size": "128"}]}}}, "dtype": {"type": "DT_FLOAT"}}}, {"name": "StatefulPartitionedCall/strided_slice_29/stack", "op": "Const", "attr": {"value": {"tensor": {"dtype": "DT_INT32", "tensorShape": {"dim": [{"size": "1"}]}}}, "dtype": {"type": "DT_INT32"}}}, {"name": "StatefulPartitionedCall/strided_slice_29/stack_1", "op": "Const", "attr": {"value": {"tensor": {"dtype": "DT_INT32", "tensorShape": {"dim": [{"size": "1"}]}}}, "dtype": {"type": "DT_INT32"}}}, {"name": "StatefulPartitionedCall/strided_slice_29/stack_2", "op": "Const", "attr": {"dtype": {"type": "DT_INT32"}, "value": {"tensor": {"dtype": "DT_INT32", "tensorShape": {"dim": [{"size": "1"}]}}}}}, {"name": "StatefulPartitionedCall/assert_equal_35/y", "op": "Const", "attr": {"value": {"tensor": {"dtype": "DT_BOOL", "tensorShape": {}}}, "dtype": {"type": "DT_BOOL"}}}, {"name": "StatefulPartitionedCall/Neg", "op": "Const", "attr": {"value": {"tensor": {"dtype": "DT_INT64", "tensorShape": {}}}, "dtype": {"type": "DT_INT64"}}}, {"name": "StatefulPartitionedCall/strided_slice", "op": "Const", "attr": {"value": {"tensor": {"dtype": "DT_INT64", "tensorShape": {}}}, "dtype": {"type": "DT_INT64"}}}, {"name": "StatefulPartitionedCall/assert_equal_1/y", "op": "Const", "attr": {"dtype": {"type": "DT_BOOL"}, "value": {"tensor": {"dtype": "DT_BOOL", "tensorShape": {}}}}}, {"name": "StatefulPartitionedCall/assert_equal_1/Const", "op": "Const", "attr": {"value": {"tensor": {"dtype": "DT_INT32", "tensorShape": {"dim": [{"size": "2"}]}}}, "dtype": {"type": "DT_INT32"}}}, {"name": "StatefulPartitionedCall/assert_equal_3/All", "op": "Const", "attr": {"value": {"tensor": {"dtype": "DT_BOOL", "tensorShape": {}}}, "dtype": {"type": "DT_BOOL"}}}, {"name": "StatefulPartitionedCall/assert_equal_5/All", "op": "Const", "attr": {"dtype": {"type": "DT_BOOL"}, "value": {"tensor": {"dtype": "DT_BOOL", "tensorShape": {}}}}}, {"name": "auction_seq", "op": "Placeholder", "attr": {"dtype": {"type": "DT_INT64"}, "shape": {"shape": {"dim": [{"size": "-1"}, {"size": "40"}]}}}}, {"name": "aux_feats", "op": "Placeholder", "attr": {"dtype": {"type": "DT_FLOAT"}, "shape": {"shape": {"dim": [{"size": "-1"}, {"size": "10"}]}}}}, {"name": "conv_feats", "op": "Placeholder", "attr": {"dtype": {"type": "DT_FLOAT"}, "shape": {"shape": {"dim": [{"size": "-1"}, {"size": "1"}]}}}}, {"name": "hand_feats", "op": "Placeholder", "attr": {"shape": {"shape": {"dim": [{"size": "-1"}, {"size": "52"}]}}, "dtype": {"type": "DT_FLOAT"}}}, {"name": "StatefulPartitionedCall/SparseToDense_35", "op": "SparseToDense", "input": ["StatefulPartitionedCall/ExpandDims_53", "StatefulPartitionedCall/Cast_57", "StatefulPartitionedCall/SelectV2_33", "StatefulPartitionedCall/zeros_26"], "attr": {"T": {"type": "DT_INT64"}, "validate_indices": {"b": true}, "Tindices": {"type": "DT_INT64"}}}, {"name": "StatefulPartitionedCall/SparseToDense_36", "op": "SparseToDense", "input": ["StatefulPartitionedCall/ExpandDims_53", "StatefulPartitionedCall/Cast_57", "StatefulPartitionedCall/SelectV2_34", "StatefulPartitionedCall/Const_35"], "attr": {"validate_indices": {"b": true}, "Tindices": {"type": "DT_INT64"}, "T": {"type": "DT_INT64"}}}, {"name": "StatefulPartitionedCall/assert_equal_19/Assert/AssertGuard/StatefulPartitionedCall/assert_equal_19/All/_145", "op": "Switch", "input": ["StatefulPartitionedCall/assert_equal_19/All", "StatefulPartitionedCall/assert_equal_19/All"], "attr": {"T": {"type": "DT_BOOL"}}}, {"name": "StatefulPartitionedCall/assert_equal_21/Assert/AssertGuard/StatefulPartitionedCall/assert_equal_21/All/_155", "op": "Switch", "input": ["StatefulPartitionedCall/assert_equal_21/All", "StatefulPartitionedCall/assert_equal_21/All"], "attr": {"T": {"type": "DT_BOOL"}}}, {"name": "StatefulPartitionedCall/assert_equal_23/Assert/AssertGuard/StatefulPartitionedCall/assert_equal_23/All/_165", "op": "Switch", "input": ["StatefulPartitionedCall/assert_equal_23/All", "StatefulPartitionedCall/assert_equal_23/All"], "attr": {"T": {"type": "DT_BOOL"}}}, {"name": "StatefulPartitionedCall/SparseToDense_26", "op": "SparseToDense", "input": ["StatefulPartitionedCall/ExpandDims_38", "StatefulPartitionedCall/Cast_46", "StatefulPartitionedCall/SelectV2_25", "StatefulPartitionedCall/zeros_19"], "attr": {"validate_indices": {"b": true}, "Tindices": {"type": "DT_INT64"}, "T": {"type": "DT_INT64"}}}, {"name": "StatefulPartitionedCall/SparseToDense_27", "op": "SparseToDense", "input": ["StatefulPartitionedCall/ExpandDims_38", "StatefulPartitionedCall/Cast_46", "StatefulPartitionedCall/SelectV2_26", "StatefulPartitionedCall/Const_26"], "attr": {"Tindices": {"type": "DT_INT64"}, "T": {"type": "DT_INT64"}, "validate_indices": {"b": true}}}, {"name": "StatefulPartitionedCall/SparseToDense_24", "op": "SparseToDense", "input": ["StatefulPartitionedCall/ExpandDims_28", "StatefulPartitionedCall/Cast_43", "StatefulPartitionedCall/SelectV2_21", "StatefulPartitionedCall/zeros_18"], "attr": {"validate_indices": {"b": true}, "T": {"type": "DT_INT64"}, "Tindices": {"type": "DT_INT64"}}}, {"name": "StatefulPartitionedCall/SparseToDense_25", "op": "SparseToDense", "input": ["StatefulPartitionedCall/ExpandDims_28", "StatefulPartitionedCall/Cast_43", "StatefulPartitionedCall/SelectV2_22", "StatefulPartitionedCall/Const_24"], "attr": {"T": {"type": "DT_INT64"}, "validate_indices": {"b": true}, "Tindices": {"type": "DT_INT64"}}}, {"name": "StatefulPartitionedCall/SparseToDense_18", "op": "SparseToDense", "input": ["StatefulPartitionedCall/ExpandDims_26", "StatefulPartitionedCall/Cast_29", "StatefulPartitionedCall/SelectV2_17", "StatefulPartitionedCall/zeros_13"], "attr": {"Tindices": {"type": "DT_INT64"}, "T": {"type": "DT_INT64"}, "validate_indices": {"b": true}}}, {"name": "StatefulPartitionedCall/SparseToDense_19", "op": "SparseToDense", "input": ["StatefulPartitionedCall/ExpandDims_26", "StatefulPartitionedCall/Cast_29", "StatefulPartitionedCall/SelectV2_18", "StatefulPartitionedCall/Const_18"], "attr": {"Tindices": {"type": "DT_INT64"}, "validate_indices": {"b": true}, "T": {"type": "DT_INT64"}}}, {"name": "StatefulPartitionedCall/assert_equal_7/Assert/AssertGuard/StatefulPartitionedCall/assert_equal_7/All/_85", "op": "Switch", "input": ["StatefulPartitionedCall/assert_equal_7/All", "StatefulPartitionedCall/assert_equal_7/All"], "attr": {"T": {"type": "DT_BOOL"}}}, {"name": "StatefulPartitionedCall/SparseToDense_9", "op": "SparseToDense", "input": ["StatefulPartitionedCall/ExpandDims_11", "StatefulPartitionedCall/Cast_18", "StatefulPartitionedCall/SelectV2_9", "StatefulPartitionedCall/zeros_6"], "attr": {"Tindices": {"type": "DT_INT64"}, "T": {"type": "DT_INT64"}, "validate_indices": {"b": true}}}, {"name": "StatefulPartitionedCall/SparseToDense_10", "op": "SparseToDense", "input": ["StatefulPartitionedCall/ExpandDims_11", "StatefulPartitionedCall/Cast_18", "StatefulPartitionedCall/SelectV2_10", "StatefulPartitionedCall/Const_9"], "attr": {"validate_indices": {"b": true}, "Tindices": {"type": "DT_INT64"}, "T": {"type": "DT_INT64"}}}, {"name": "StatefulPartitionedCall/SparseToDense_7", "op": "SparseToDense", "input": ["StatefulPartitionedCall/ExpandDims_1", "StatefulPartitionedCall/Cast_15", "StatefulPartitionedCall/SelectV2_5", "StatefulPartitionedCall/zeros_5"], "attr": {"T": {"type": "DT_INT64"}, "validate_indices": {"b": true}, "Tindices": {"type": "DT_INT64"}}}, {"name": "StatefulPartitionedCall/SparseToDense_8", "op": "SparseToDense", "input": ["StatefulPartitionedCall/ExpandDims_1", "StatefulPartitionedCall/Cast_15", "StatefulPartitionedCall/SelectV2_6", "StatefulPartitionedCall/Const_7"], "attr": {"Tindices": {"type": "DT_INT64"}, "validate_indices": {"b": true}, "T": {"type": "DT_INT64"}}}, {"name": "StatefulPartitionedCall/SparseToDense", "op": "SparseToDense", "input": ["StatefulPartitionedCall/ExpandDims", "StatefulPartitionedCall/Cast_1", "StatefulPartitionedCall/SelectV2_1", "StatefulPartitionedCall/zeros"], "attr": {"validate_indices": {"b": true}, "T": {"type": "DT_INT64"}, "Tindices": {"type": "DT_INT64"}}}, {"name": "StatefulPartitionedCall/SparseToDense_1", "op": "SparseToDense", "input": ["StatefulPartitionedCall/ExpandDims", "StatefulPartitionedCall/Cast_1", "StatefulPartitionedCall/SelectV2_2", "StatefulPartitionedCall/Const"], "attr": {"T": {"type": "DT_INT64"}, "validate_indices": {"b": true}, "Tindices": {"type": "DT_INT64"}}}, {"name": "StatefulPartitionedCall/SparseToDense_2", "op": "SparseToDense", "input": ["StatefulPartitionedCall/ExpandDims", "StatefulPartitionedCall/Cast_1", "unknown_3", "StatefulPartitionedCall/Const_2"], "attr": {"T": {"type": "DT_INT64"}, "Tindices": {"type": "DT_INT64"}, "validate_indices": {"b": true}}}, {"name": "StatefulPartitionedCall/SparseToDense_11", "op": "SparseToDense", "input": ["StatefulPartitionedCall/ExpandDims_12", "StatefulPartitionedCall/Cast_20", "StatefulPartitionedCall/SelectV2_13", "StatefulPartitionedCall/zeros_7"], "attr": {"T": {"type": "DT_INT64"}, "Tindices": {"type": "DT_INT64"}, "validate_indices": {"b": true}}}, {"name": "StatefulPartitionedCall/SparseToDense_12", "op": "SparseToDense", "input": ["StatefulPartitionedCall/ExpandDims_12", "StatefulPartitionedCall/Cast_20", "StatefulPartitionedCall/SelectV2_14", "StatefulPartitionedCall/Const_11"], "attr": {"validate_indices": {"b": true}, "T": {"type": "DT_INT64"}, "Tindices": {"type": "DT_INT64"}}}, {"name": "StatefulPartitionedCall/assert_equal_15/Assert/AssertGuard/StatefulPartitionedCall/assert_equal_15/All/_125", "op": "Switch", "input": ["StatefulPartitionedCall/assert_equal_15/All", "StatefulPartitionedCall/assert_equal_15/All"], "attr": {"T": {"type": "DT_BOOL"}}}, {"name": "StatefulPartitionedCall/assert_equal_17/Assert/AssertGuard/StatefulPartitionedCall/assert_equal_17/All/_135", "op": "Switch", "input": ["StatefulPartitionedCall/assert_equal_17/All", "StatefulPartitionedCall/assert_equal_17/All"], "attr": {"T": {"type": "DT_BOOL"}}}, {"name": "StatefulPartitionedCall/SparseToDense_28", "op": "SparseToDense", "input": ["StatefulPartitionedCall/ExpandDims_39", "StatefulPartitionedCall/Cast_48", "StatefulPartitionedCall/SelectV2_29", "StatefulPartitionedCall/zeros_20"], "attr": {"T": {"type": "DT_INT64"}, "Tindices": {"type": "DT_INT64"}, "validate_indices": {"b": true}}}, {"name": "StatefulPartitionedCall/SparseToDense_29", "op": "SparseToDense", "input": ["StatefulPartitionedCall/ExpandDims_39", "StatefulPartitionedCall/Cast_48", "StatefulPartitionedCall/SelectV2_30", "StatefulPartitionedCall/Const_28"], "attr": {"T": {"type": "DT_INT64"}, "validate_indices": {"b": true}, "Tindices": {"type": "DT_INT64"}}}, {"name": "StatefulPartitionedCall/assert_equal_31/Assert/AssertGuard/StatefulPartitionedCall/assert_equal_31/All/_205", "op": "Switch", "input": ["StatefulPartitionedCall/assert_equal_31/All", "StatefulPartitionedCall/assert_equal_31/All"], "attr": {"T": {"type": "DT_BOOL"}}}, {"name": "StatefulPartitionedCall/assert_equal_33/Assert/AssertGuard/StatefulPartitionedCall/assert_equal_33/All/_215", "op": "Switch", "input": ["StatefulPartitionedCall/assert_equal_33/All", "StatefulPartitionedCall/assert_equal_33/All"], "attr": {"T": {"type": "DT_BOOL"}}}, {"name": "StatefulPartitionedCall/assert_equal_3/Assert/AssertGuard/StatefulPartitionedCall/assert_equal_3/All/_65", "op": "Switch", "input": ["StatefulPartitionedCall/assert_equal_3/All", "StatefulPartitionedCall/assert_equal_3/All"], "attr": {"T": {"type": "DT_BOOL"}}}, {"name": "StatefulPartitionedCall/assert_equal_5/Assert/AssertGuard/StatefulPartitionedCall/assert_equal_5/All/_75", "op": "Switch", "input": ["StatefulPartitionedCall/assert_equal_5/All", "StatefulPartitionedCall/assert_equal_5/All"], "attr": {"T": {"type": "DT_BOOL"}}}, {"name": "StatefulPartitionedCall/GreaterEqual", "op": "GreaterEqual", "input": ["auction_seq", "StatefulPartitionedCall/Neg"], "attr": {"T": {"type": "DT_INT64"}}}, {"name": "StatefulPartitionedCall/Less_3", "op": "Less", "input": ["auction_seq", "StatefulPartitionedCall/strided_slice"], "attr": {"T": {"type": "DT_INT64"}}}, {"name": "StatefulPartitionedCall/Equal_26", "op": "Equal", "input": ["StatefulPartitionedCall/SparseToDense_36", "StatefulPartitionedCall/Const_36"], "attr": {"T": {"type": "DT_INT64"}, "incompatible_shape_error": {"b": true}}}, {"name": "ConstantFoldingCtrl/StatefulPartitionedCall/assert_equal_19/Assert/AssertGuard/StatefulPartitionedCall/assert_equal_19/All/_145_0", "op": "Identity", "input": ["StatefulPartitionedCall/assert_equal_19/Assert/AssertGuard/StatefulPartitionedCall/assert_equal_19/All/_145"], "attr": {"T": {"type": "DT_BOOL"}}}, {"name": "ConstantFoldingCtrl/StatefulPartitionedCall/assert_equal_21/Assert/AssertGuard/StatefulPartitionedCall/assert_equal_21/All/_155_0", "op": "Identity", "input": ["StatefulPartitionedCall/assert_equal_21/Assert/AssertGuard/StatefulPartitionedCall/assert_equal_21/All/_155"], "attr": {"T": {"type": "DT_BOOL"}}}, {"name": "ConstantFoldingCtrl/StatefulPartitionedCall/assert_equal_23/Assert/AssertGuard/StatefulPartitionedCall/assert_equal_23/All/_165_0", "op": "Identity", "input": ["StatefulPartitionedCall/assert_equal_23/Assert/AssertGuard/StatefulPartitionedCall/assert_equal_23/All/_165"], "attr": {"T": {"type": "DT_BOOL"}}}, {"name": "StatefulPartitionedCall/Equal_19", "op": "Equal", "input": ["StatefulPartitionedCall/SparseToDense_27", "StatefulPartitionedCall/Const_27"], "attr": {"T": {"type": "DT_INT64"}, "incompatible_shape_error": {"b": true}}}, {"name": "StatefulPartitionedCall/Equal_18", "op": "Equal", "input": ["StatefulPartitionedCall/SparseToDense_25", "StatefulPartitionedCall/Const_25"], "attr": {"T": {"type": "DT_INT64"}, "incompatible_shape_error": {"b": true}}}, {"name": "StatefulPartitionedCall/Equal_13", "op": "Equal", "input": ["StatefulPartitionedCall/SparseToDense_19", "StatefulPartitionedCall/Const_19"], "attr": {"T": {"type": "DT_INT64"}, "incompatible_shape_error": {"b": true}}}, {"name": "ConstantFoldingCtrl/StatefulPartitionedCall/assert_equal_7/Assert/AssertGuard/StatefulPartitionedCall/assert_equal_7/All/_85_0", "op": "Identity", "input": ["StatefulPartitionedCall/assert_equal_7/Assert/AssertGuard/StatefulPartitionedCall/assert_equal_7/All/_85"], "attr": {"T": {"type": "DT_BOOL"}}}, {"name": "StatefulPartitionedCall/Equal_6", "op": "Equal", "input": ["StatefulPartitionedCall/SparseToDense_10", "StatefulPartitionedCall/Const_10"], "attr": {"T": {"type": "DT_INT64"}, "incompatible_shape_error": {"b": true}}}, {"name": "StatefulPartitionedCall/Equal_5", "op": "Equal", "input": ["StatefulPartitionedCall/SparseToDense_8", "StatefulPartitionedCall/Const_8"], "attr": {"T": {"type": "DT_INT64"}, "incompatible_shape_error": {"b": true}}}, {"name": "StatefulPartitionedCall/Equal", "op": "Equal", "input": ["StatefulPartitionedCall/SparseToDense_1", "StatefulPartitionedCall/Const_1"], "attr": {"T": {"type": "DT_INT64"}, "incompatible_shape_error": {"b": true}}}, {"name": "StatefulPartitionedCall/Equal_7", "op": "Equal", "input": ["StatefulPartitionedCall/SparseToDense_12", "StatefulPartitionedCall/Const_12"], "attr": {"T": {"type": "DT_INT64"}, "incompatible_shape_error": {"b": true}}}, {"name": "ConstantFoldingCtrl/StatefulPartitionedCall/assert_equal_15/Assert/AssertGuard/StatefulPartitionedCall/assert_equal_15/All/_125_0", "op": "Identity", "input": ["StatefulPartitionedCall/assert_equal_15/Assert/AssertGuard/StatefulPartitionedCall/assert_equal_15/All/_125"], "attr": {"T": {"type": "DT_BOOL"}}}, {"name": "ConstantFoldingCtrl/StatefulPartitionedCall/assert_equal_17/Assert/AssertGuard/StatefulPartitionedCall/assert_equal_17/All/_135_0", "op": "Identity", "input": ["StatefulPartitionedCall/assert_equal_17/Assert/AssertGuard/StatefulPartitionedCall/assert_equal_17/All/_135"], "attr": {"T": {"type": "DT_BOOL"}}}, {"name": "StatefulPartitionedCall/Equal_20", "op": "Equal", "input": ["StatefulPartitionedCall/SparseToDense_29", "StatefulPartitionedCall/Const_29"], "attr": {"T": {"type": "DT_INT64"}, "incompatible_shape_error": {"b": true}}}, {"name": "ConstantFoldingCtrl/StatefulPartitionedCall/assert_equal_31/Assert/AssertGuard/StatefulPartitionedCall/assert_equal_31/All/_205_0", "op": "Identity", "input": ["StatefulPartitionedCall/assert_equal_31/Assert/AssertGuard/StatefulPartitionedCall/assert_equal_31/All/_205"], "attr": {"T": {"type": "DT_BOOL"}}}, {"name": "ConstantFoldingCtrl/StatefulPartitionedCall/assert_equal_33/Assert/AssertGuard/StatefulPartitionedCall/assert_equal_33/All/_215_0", "op": "Identity", "input": ["StatefulPartitionedCall/assert_equal_33/Assert/AssertGuard/StatefulPartitionedCall/assert_equal_33/All/_215"], "attr": {"T": {"type": "DT_BOOL"}}}, {"name": "ConstantFoldingCtrl/StatefulPartitionedCall/assert_equal_3/Assert/AssertGuard/StatefulPartitionedCall/assert_equal_3/All/_65_0", "op": "Identity", "input": ["StatefulPartitionedCall/assert_equal_3/Assert/AssertGuard/StatefulPartitionedCall/assert_equal_3/All/_65"], "attr": {"T": {"type": "DT_BOOL"}}}, {"name": "ConstantFoldingCtrl/StatefulPartitionedCall/assert_equal_5/Assert/AssertGuard/StatefulPartitionedCall/assert_equal_5/All/_75_0", "op": "Identity", "input": ["StatefulPartitionedCall/assert_equal_5/Assert/AssertGuard/StatefulPartitionedCall/assert_equal_5/All/_75"], "attr": {"T": {"type": "DT_BOOL"}}}, {"name": "StatefulPartitionedCall/LogicalAnd", "op": "LogicalAnd", "input": ["StatefulPartitionedCall/GreaterEqual", "StatefulPartitionedCall/Less_3"]}, {"name": "StatefulPartitionedCall/SelectV2_35", "op": "SelectV2", "input": ["StatefulPartitionedCall/Equal_26", "StatefulPartitionedCall/Shape_61", "StatefulPartitionedCall/SparseToDense_36"], "attr": {"T": {"type": "DT_INT64"}}}, {"name": "StatefulPartitionedCall/SelectV2_27", "op": "SelectV2", "input": ["StatefulPartitionedCall/Equal_19", "StatefulPartitionedCall/Shape_41", "StatefulPartitionedCall/SparseToDense_27"], "attr": {"T": {"type": "DT_INT64"}}}, {"name": "StatefulPartitionedCall/SelectV2_23", "op": "SelectV2", "input": ["StatefulPartitionedCall/Equal_18", "StatefulPartitionedCall/Shape_40", "StatefulPartitionedCall/SparseToDense_25"], "attr": {"T": {"type": "DT_INT64"}}}, {"name": "StatefulPartitionedCall/SelectV2_19", "op": "SelectV2", "input": ["StatefulPartitionedCall/Equal_13", "StatefulPartitionedCall/Shape_30", "StatefulPartitionedCall/SparseToDense_19"], "attr": {"T": {"type": "DT_INT64"}}}, {"name": "StatefulPartitionedCall/SelectV2_11", "op": "SelectV2", "input": ["StatefulPartitionedCall/Equal_6", "StatefulPartitionedCall/Shape_10", "StatefulPartitionedCall/SparseToDense_10"], "attr": {"T": {"type": "DT_INT64"}}}, {"name": "StatefulPartitionedCall/SelectV2_7", "op": "SelectV2", "input": ["StatefulPartitionedCall/Equal_5", "StatefulPartitionedCall/Shape_9", "StatefulPartitionedCall/SparseToDense_8"], "attr": {"T": {"type": "DT_INT64"}}}, {"name": "StatefulPartitionedCall/SelectV2_3", "op": "SelectV2", "input": ["StatefulPartitionedCall/Equal", "StatefulPartitionedCall/Shape", "StatefulPartitionedCall/SparseToDense_1"], "attr": {"T": {"type": "DT_INT64"}}}, {"name": "StatefulPartitionedCall/SelectV2_15", "op": "SelectV2", "input": ["StatefulPartitionedCall/Equal_7", "StatefulPartitionedCall/Shape_12", "StatefulPartitionedCall/SparseToDense_12"], "attr": {"T": {"type": "DT_INT64"}}}, {"name": "StatefulPartitionedCall/SelectV2_31", "op": "SelectV2", "input": ["StatefulPartitionedCall/Equal_20", "StatefulPartitionedCall/Shape_43", "StatefulPartitionedCall/SparseToDense_29"], "attr": {"T": {"type": "DT_INT64"}}}, {"name": "StatefulPartitionedCall/assert_equal_1/Equal", "op": "Equal", "input": ["StatefulPartitionedCall/LogicalAnd", "StatefulPartitionedCall/assert_equal_1/y"], "attr": {"T": {"type": "DT_BOOL"}, "incompatible_shape_error": {"b": true}}}, {"name": "StatefulPartitionedCall/onnx_tf_prefix_/pos_encoder/Slice", "op": "StridedSlice", "input": ["unknown", "StatefulPartitionedCall/SparseToDense", "StatefulPartitionedCall/SelectV2_3", "StatefulPartitionedCall/SparseToDense_2"], "attr": {"ellipsis_mask": {"i": "0"}, "T": {"type": "DT_FLOAT"}, "shrink_axis_mask": {"i": "0"}, "begin_mask": {"i": "0"}, "end_mask": {"i": "0"}, "Index": {"type": "DT_INT64"}, "new_axis_mask": {"i": "0"}}}, {"name": "StatefulPartitionedCall/assert_equal_1/All", "op": "All", "input": ["StatefulPartitionedCall/assert_equal_1/Equal", "StatefulPartitionedCall/assert_equal_1/Const"], "attr": {"Tidx": {"type": "DT_INT32"}, "keep_dims": {"b": false}}}, {"name": "StatefulPartitionedCall/onnx_tf_prefix_/pos_encoder/Slice_transpose", "op": "Transpose", "input": ["StatefulPartitionedCall/onnx_tf_prefix_/pos_encoder/Slice", "StatefulPartitionedCall/onnx_tf_prefix_/pos_encoder/Slice_transpose/perm"], "attr": {"T": {"type": "DT_FLOAT"}, "Tperm": {"type": "DT_INT32"}, "_input_shapes": {"list": {"shape": [{"dim": [{"size": "-17"}, {"size": "-18"}, {"size": "-19"}]}, {"dim": [{"size": "3"}]}]}}}}, {"name": "StatefulPartitionedCall/assert_equal_1/Assert/AssertGuard/StatefulPartitionedCall/assert_equal_1/All/_55", "op": "Switch", "input": ["StatefulPartitionedCall/assert_equal_1/All", "StatefulPartitionedCall/assert_equal_1/All"], "attr": {"T": {"type": "DT_BOOL"}}}, {"name": "StatefulPartitionedCall/assert_equal_1/Assert/AssertGuard/switch_pred/_52", "op": "Switch", "input": ["StatefulPartitionedCall/assert_equal_1/All", "StatefulPartitionedCall/assert_equal_1/All"], "attr": {"T": {"type": "DT_BOOL"}}}, {"name": "StatefulPartitionedCall/assert_equal_1/Assert/AssertGuard/StatefulPartitionedCall/assert_equal_1/y/_57", "op": "Switch", "input": ["StatefulPartitionedCall/assert_equal_1/y", "StatefulPartitionedCall/assert_equal_1/All"], "attr": {"T": {"type": "DT_BOOL"}}}, {"name": "StatefulPartitionedCall/assert_equal_1/Assert/AssertGuard/StatefulPartitionedCall/LogicalAnd/_56", "op": "Switch", "input": ["StatefulPartitionedCall/LogicalAnd", "StatefulPartitionedCall/assert_equal_1/All"], "attr": {"T": {"type": "DT_BOOL"}}}, {"name": "ConstantFoldingCtrl/StatefulPartitionedCall/assert_equal_1/Assert/AssertGuard/StatefulPartitionedCall/assert_equal_1/All/_55_0", "op": "Identity", "input": ["StatefulPartitionedCall/assert_equal_1/Assert/AssertGuard/StatefulPartitionedCall/assert_equal_1/All/_55"], "attr": {"T": {"type": "DT_BOOL"}}}, {"name": "ConstantFoldingCtrl/StatefulPartitionedCall/assert_equal_1/Assert/AssertGuard/StatefulPartitionedCall/assert_equal_1/All/_55_1", "op": "Identity", "input": ["StatefulPartitionedCall/assert_equal_1/Assert/AssertGuard/StatefulPartitionedCall/assert_equal_1/All/_55:1"], "attr": {"T": {"type": "DT_BOOL"}}}, {"name": "ConstantFoldingCtrl/StatefulPartitionedCall/assert_equal_1/Assert/AssertGuard/switch_pred/_52_0", "op": "Identity", "input": ["StatefulPartitionedCall/assert_equal_1/Assert/AssertGuard/switch_pred/_52"], "attr": {"T": {"type": "DT_BOOL"}}}, {"name": "ConstantFoldingCtrl/StatefulPartitionedCall/assert_equal_1/Assert/AssertGuard/switch_pred/_52_1", "op": "Identity", "input": ["StatefulPartitionedCall/assert_equal_1/Assert/AssertGuard/switch_pred/_52:1"], "attr": {"T": {"type": "DT_BOOL"}}}, {"name": "StatefulPartitionedCall/assert_equal_1/Assert/AssertGuard/pivot_f/_53", "op": "Const", "input": ["^ConstantFoldingCtrl/StatefulPartitionedCall/assert_equal_1/Assert/AssertGuard/switch_pred/_52_0"], "attr": {"value": {"tensor": {"dtype": "DT_BOOL", "tensorShape": {}}}, "dtype": {"type": "DT_BOOL"}}}, {"name": "StatefulPartitionedCall/assert_equal_1/Assert/AssertGuard/pivot_t/_54", "op": "Const", "input": ["^ConstantFoldingCtrl/StatefulPartitionedCall/assert_equal_1/Assert/AssertGuard/switch_pred/_52_1"], "attr": {"value": {"tensor": {"dtype": "DT_BOOL", "tensorShape": {}}}, "dtype": {"type": "DT_BOOL"}}}, {"name": "StatefulPartitionedCall/assert_equal_1/Assert/AssertGuard/else/_51/assert_equal_1/Assert/AssertGuard/Assert", "op": "NoOp", "input": ["^ConstantFoldingCtrl/StatefulPartitionedCall/assert_equal_1/Assert/AssertGuard/StatefulPartitionedCall/assert_equal_1/All/_55_0", "^StatefulPartitionedCall/assert_equal_1/Assert/AssertGuard/StatefulPartitionedCall/LogicalAnd/_56", "^StatefulPartitionedCall/assert_equal_1/Assert/AssertGuard/pivot_f/_53", "^StatefulPartitionedCall/assert_equal_1/Assert/AssertGuard/StatefulPartitionedCall/assert_equal_1/y/_57"], "attr": {"_has_manual_control_dependencies": {"b": true}}}, {"name": "Func/StatefulPartitionedCall/assert_equal_1/Assert/AssertGuard/then/_50/output/_234", "op": "Const", "input": ["^ConstantFoldingCtrl/StatefulPartitionedCall/assert_equal_1/Assert/AssertGuard/StatefulPartitionedCall/assert_equal_1/All/_55_1", "^StatefulPartitionedCall/assert_equal_1/Assert/AssertGuard/pivot_t/_54"], "attr": {"value": {"tensor": {"dtype": "DT_BOOL", "tensorShape": {}}}, "dtype": {"type": "DT_BOOL"}}}, {"name": "Func/StatefulPartitionedCall/assert_equal_1/Assert/AssertGuard/else/_51/output/_240", "op": "Const", "input": ["^StatefulPartitionedCall/assert_equal_1/Assert/AssertGuard/else/_51/assert_equal_1/Assert/AssertGuard/Assert"], "attr": {"value": {"tensor": {"dtype": "DT_BOOL", "tensorShape": {}}}, "dtype": {"type": "DT_BOOL"}}}, {"name": "StatefulPartitionedCall/assert_equal_1/Assert/AssertGuard/branch_executed/_59", "op": "Merge", "input": ["StatefulPartitionedCall/assert_equal_1/Assert/AssertGuard/pivot_t/_54", "StatefulPartitionedCall/assert_equal_1/Assert/AssertGuard/pivot_f/_53", "^StatefulPartitionedCall/assert_equal_1/Assert/AssertGuard/else/_51/assert_equal_1/Assert/AssertGuard/Assert"], "attr": {"N": {"i": "2"}, "T": {"type": "DT_BOOL"}, "_has_manual_control_dependencies": {"b": true}}}, {"name": "StatefulPartitionedCall/assert_equal_1/Assert/AssertGuard/output/_58", "op": "Merge", "input": ["Func/StatefulPartitionedCall/assert_equal_1/Assert/AssertGuard/then/_50/output/_234", "Func/StatefulPartitionedCall/assert_equal_1/Assert/AssertGuard/else/_51/output/_240"], "attr": {"N": {"i": "2"}, "T": {"type": "DT_BOOL"}}}, {"name": "StatefulPartitionedCall/assert_equal_3/Assert/AssertGuard/pivot_t/_64", "op": "Const", "input": ["^StatefulPartitionedCall/assert_equal_1/Assert/AssertGuard/branch_executed/_59"], "attr": {"dtype": {"type": "DT_BOOL"}, "value": {"tensor": {"dtype": "DT_BOOL", "tensorShape": {}}}}}, {"name": "StatefulPartitionedCall/assert_equal_3/Assert/AssertGuard/switch_pred/_62", "op": "Switch", "input": ["StatefulPartitionedCall/assert_equal_3/All", "StatefulPartitionedCall/assert_equal_3/All", "^StatefulPartitionedCall/assert_equal_1/Assert/AssertGuard/branch_executed/_59"], "attr": {"T": {"type": "DT_BOOL"}}}, {"name": "StatefulPartitionedCall/Cast_3/x", "op": "Const", "input": ["^StatefulPartitionedCall/assert_equal_1/Assert/AssertGuard/output/_58"], "attr": {"dtype": {"type": "DT_INT64"}, "value": {"tensor": {"dtype": "DT_INT64", "tensorShape": {}}}}}, {"name": "StatefulPartitionedCall/onnx_tf_prefix_/auction_embedding/Gather/axis", "op": "Const", "input": ["^StatefulPartitionedCall/assert_equal_1/Assert/AssertGuard/output/_58"], "attr": {"value": {"tensor": {"dtype": "DT_INT32", "tensorShape": {}}}, "dtype": {"type": "DT_INT32"}}}, {"name": "Func/StatefulPartitionedCall/assert_equal_3/Assert/AssertGuard/then/_60/output/_246", "op": "Const", "input": ["^StatefulPartitionedCall/assert_equal_3/Assert/AssertGuard/pivot_t/_64"], "attr": {"value": {"tensor": {"dtype": "DT_BOOL", "tensorShape": {}}}, "dtype": {"type": "DT_BOOL"}}}, {"name": "StatefulPartitionedCall/assert_equal_3/Assert/AssertGuard/pivot_f/_63", "op": "Identity", "input": ["StatefulPartitionedCall/assert_equal_3/Assert/AssertGuard/switch_pred/_62"], "attr": {"T": {"type": "DT_BOOL"}, "_has_manual_control_dependencies": {"b": true}}}, {"name": "StatefulPartitionedCall/Add_3", "op": "AddV2", "input": ["auction_seq", "StatefulPartitionedCall/Cast_3/x"], "attr": {"T": {"type": "DT_INT64"}}}, {"name": "StatefulPartitionedCall/assert_equal_3/Assert/AssertGuard/branch_executed/_69", "op": "Merge", "input": ["StatefulPartitionedCall/assert_equal_3/Assert/AssertGuard/pivot_t/_64", "StatefulPartitionedCall/assert_equal_3/Assert/AssertGuard/pivot_f/_63", "^ConstantFoldingCtrl/StatefulPartitionedCall/assert_equal_3/Assert/AssertGuard/StatefulPartitionedCall/assert_equal_3/All/_65_0"], "attr": {"T": {"type": "DT_BOOL"}, "N": {"i": "2"}, "_has_manual_control_dependencies": {"b": true}}}, {"name": "StatefulPartitionedCall/assert_equal_3/Assert/AssertGuard/else/_61/assert_equal_3/Assert/AssertGuard/Identity_1", "op": "Const", "input": ["^StatefulPartitionedCall/assert_equal_3/Assert/AssertGuard/pivot_f/_63", "^ConstantFoldingCtrl/StatefulPartitionedCall/assert_equal_3/Assert/AssertGuard/StatefulPartitionedCall/assert_equal_3/All/_65_0"], "attr": {"dtype": {"type": "DT_BOOL"}, "value": {"tensor": {"dtype": "DT_BOOL", "tensorShape": {}}}}}, {"name": "StatefulPartitionedCall/FloorMod", "op": "FloorMod", "input": ["StatefulPartitionedCall/Add_3", "StatefulPartitionedCall/Cast_3/x"], "attr": {"T": {"type": "DT_INT64"}}}, {"name": "StatefulPartitionedCall/assert_equal_5/Assert/AssertGuard/pivot_t/_74", "op": "Const", "input": ["^StatefulPartitionedCall/assert_equal_3/Assert/AssertGuard/branch_executed/_69"], "attr": {"value": {"tensor": {"dtype": "DT_BOOL", "tensorShape": {}}}, "dtype": {"type": "DT_BOOL"}}}, {"name": "StatefulPartitionedCall/assert_equal_5/Assert/AssertGuard/switch_pred/_72", "op": "Switch", "input": ["StatefulPartitionedCall/assert_equal_5/All", "StatefulPartitionedCall/assert_equal_5/All", "^StatefulPartitionedCall/assert_equal_3/Assert/AssertGuard/branch_executed/_69"], "attr": {"T": {"type": "DT_BOOL"}}}, {"name": "StatefulPartitionedCall/assert_equal_3/Assert/AssertGuard/output/_68", "op": "Merge", "input": ["Func/StatefulPartitionedCall/assert_equal_3/Assert/AssertGuard/then/_60/output/_246", "StatefulPartitionedCall/assert_equal_3/Assert/AssertGuard/else/_61/assert_equal_3/Assert/AssertGuard/Identity_1"], "attr": {"N": {"i": "2"}, "T": {"type": "DT_BOOL"}}}, {"name": "StatefulPartitionedCall/onnx_tf_prefix_/auction_embedding/Gather", "op": "GatherV2", "input": ["unknown_4", "StatefulPartitionedCall/FloorMod", "StatefulPartitionedCall/onnx_tf_prefix_/auction_embedding/Gather/axis"], "attr": {"Tindices": {"type": "DT_INT64"}, "Tparams": {"type": "DT_FLOAT"}, "Taxis": {"type": "DT_INT32"}, "batch_dims": {"i": "0"}}}, {"name": "Func/StatefulPartitionedCall/assert_equal_5/Assert/AssertGuard/then/_70/output/_258", "op": "Const", "input": ["^StatefulPartitionedCall/assert_equal_5/Assert/AssertGuard/pivot_t/_74"], "attr": {"value": {"tensor": {"dtype": "DT_BOOL", "tensorShape": {}}}, "dtype": {"type": "DT_BOOL"}}}, {"name": "StatefulPartitionedCall/assert_equal_5/Assert/AssertGuard/pivot_f/_73", "op": "Identity", "input": ["StatefulPartitionedCall/assert_equal_5/Assert/AssertGuard/switch_pred/_72"], "attr": {"_has_manual_control_dependencies": {"b": true}, "T": {"type": "DT_BOOL"}}}, {"name": "StatefulPartitionedCall/FloorMod_1", "op": "Const", "input": ["^StatefulPartitionedCall/assert_equal_3/Assert/AssertGuard/output/_68"], "attr": {"value": {"tensor": {"dtype": "DT_INT64", "tensorShape": {}}}, "dtype": {"type": "DT_INT64"}}}, {"name": "StatefulPartitionedCall/onnx_tf_prefix_/transformer_encoder/layers.0/self_attn/Gather/axis", "op": "Const", "input": ["^StatefulPartitionedCall/assert_equal_3/Assert/AssertGuard/output/_68"], "attr": {"value": {"tensor": {"dtype": "DT_INT32", "tensorShape": {}}}, "dtype": {"type": "DT_INT32"}}}, {"name": "StatefulPartitionedCall/onnx_tf_prefix_/Mul", "op": "Mul", "input": ["StatefulPartitionedCall/onnx_tf_prefix_/auction_embedding/Gather", "StatefulPartitionedCall/onnx_tf_prefix_/Constant"], "attr": {"T": {"type": "DT_FLOAT"}}}, {"name": "StatefulPartitionedCall/assert_equal_5/Assert/AssertGuard/branch_executed/_79", "op": "Merge", "input": ["StatefulPartitionedCall/assert_equal_5/Assert/AssertGuard/pivot_t/_74", "StatefulPartitionedCall/assert_equal_5/Assert/AssertGuard/pivot_f/_73", "^ConstantFoldingCtrl/StatefulPartitionedCall/assert_equal_5/Assert/AssertGuard/StatefulPartitionedCall/assert_equal_5/All/_75_0"], "attr": {"_has_manual_control_dependencies": {"b": true}, "T": {"type": "DT_BOOL"}, "N": {"i": "2"}}}, {"name": "StatefulPartitionedCall/assert_equal_5/Assert/AssertGuard/else/_71/assert_equal_5/Assert/AssertGuard/Identity_1", "op": "Const", "input": ["^StatefulPartitionedCall/assert_equal_5/Assert/AssertGuard/pivot_f/_73", "^ConstantFoldingCtrl/StatefulPartitionedCall/assert_equal_5/Assert/AssertGuard/StatefulPartitionedCall/assert_equal_5/All/_75_0"], "attr": {"value": {"tensor": {"dtype": "DT_BOOL", "tensorShape": {}}}, "dtype": {"type": "DT_BOOL"}}}, {"name": "StatefulPartitionedCall/onnx_tf_prefix_/pos_encoder/Mul_transpose", "op": "Transpose", "input": ["StatefulPartitionedCall/onnx_tf_prefix_/Mul", "StatefulPartitionedCall/onnx_tf_prefix_/pos_encoder/Mul_transpose/perm"], "attr": {"_input_shapes": {"list": {"shape": [{"dim": [{"size": "-20"}, {"size": "-21"}, {"size": "-22"}]}, {"dim": [{"size": "3"}]}]}}, "T": {"type": "DT_FLOAT"}, "Tperm": {"type": "DT_INT32"}}}, {"name": "StatefulPartitionedCall/assert_equal_7/Assert/AssertGuard/pivot_t/_84", "op": "Const", "input": ["^StatefulPartitionedCall/assert_equal_5/Assert/AssertGuard/branch_executed/_79"], "attr": {"value": {"tensor": {"dtype": "DT_BOOL", "tensorShape": {}}}, "dtype": {"type": "DT_BOOL"}}}, {"name": "StatefulPartitionedCall/assert_equal_7/Assert/AssertGuard/switch_pred/_82", "op": "Switch", "input": ["StatefulPartitionedCall/assert_equal_7/All", "StatefulPartitionedCall/assert_equal_7/All", "^StatefulPartitionedCall/assert_equal_5/Assert/AssertGuard/branch_executed/_79"], "attr": {"T": {"type": "DT_BOOL"}}}, {"name": "StatefulPartitionedCall/assert_equal_5/Assert/AssertGuard/output/_78", "op": "Merge", "input": ["Func/StatefulPartitionedCall/assert_equal_5/Assert/AssertGuard/then/_70/output/_258", "StatefulPartitionedCall/assert_equal_5/Assert/AssertGuard/else/_71/assert_equal_5/Assert/AssertGuard/Identity_1"], "attr": {"N": {"i": "2"}, "T": {"type": "DT_BOOL"}}}, {"name": "StatefulPartitionedCall/onnx_tf_prefix_/pos_encoder/Add", "op": "AddV2", "input": ["StatefulPartitionedCall/onnx_tf_prefix_/pos_encoder/Mul_transpose", "StatefulPartitionedCall/onnx_tf_prefix_/pos_encoder/Slice_transpose"], "attr": {"T": {"type": "DT_FLOAT"}}}, {"name": "Func/StatefulPartitionedCall/assert_equal_7/Assert/AssertGuard/then/_80/output/_270", "op": "Const", "input": ["^StatefulPartitionedCall/assert_equal_7/Assert/AssertGuard/pivot_t/_84"], "attr": {"value": {"tensor": {"dtype": "DT_BOOL", "tensorShape": {}}}, "dtype": {"type": "DT_BOOL"}}}, {"name": "StatefulPartitionedCall/assert_equal_7/Assert/AssertGuard/pivot_f/_83", "op": "Identity", "input": ["StatefulPartitionedCall/assert_equal_7/Assert/AssertGuard/switch_pred/_82"], "attr": {"_has_manual_control_dependencies": {"b": true}, "T": {"type": "DT_BOOL"}}}, {"name": "StatefulPartitionedCall/FloorMod_2", "op": "Const", "input": ["^StatefulPartitionedCall/assert_equal_5/Assert/AssertGuard/output/_78"], "attr": {"value": {"tensor": {"dtype": "DT_INT64", "tensorShape": {}}}, "dtype": {"type": "DT_INT64"}}}, {"name": "StatefulPartitionedCall/onnx_tf_prefix_/transformer_encoder/layers.0/self_attn/Gather_1/axis", "op": "Const", "input": ["^StatefulPartitionedCall/assert_equal_5/Assert/AssertGuard/output/_78"], "attr": {"value": {"tensor": {"dtype": "DT_INT32", "tensorShape": {}}}, "dtype": {"type": "DT_INT32"}}}, {"name": "StatefulPartitionedCall/onnx_tf_prefix_/pos_encoder/Add_transpose_back", "op": "Transpose", "input": ["StatefulPartitionedCall/onnx_tf_prefix_/pos_encoder/Add", "StatefulPartitionedCall/onnx_tf_prefix_/pos_encoder/Add_transpose_back/perm"], "attr": {"T": {"type": "DT_FLOAT"}, "_input_shapes": {"list": {"shape": [{"dim": [{"size": "-23"}, {"size": "128"}, {"size": "-24"}]}, {"dim": [{"size": "3"}]}]}}, "Tperm": {"type": "DT_INT32"}}}, {"name": "StatefulPartitionedCall/assert_equal_7/Assert/AssertGuard/branch_executed/_89", "op": "Merge", "input": ["StatefulPartitionedCall/assert_equal_7/Assert/AssertGuard/pivot_t/_84", "StatefulPartitionedCall/assert_equal_7/Assert/AssertGuard/pivot_f/_83", "^ConstantFoldingCtrl/StatefulPartitionedCall/assert_equal_7/Assert/AssertGuard/StatefulPartitionedCall/assert_equal_7/All/_85_0"], "attr": {"_has_manual_control_dependencies": {"b": true}, "N": {"i": "2"}, "T": {"type": "DT_BOOL"}}}, {"name": "StatefulPartitionedCall/assert_equal_7/Assert/AssertGuard/else/_81/assert_equal_7/Assert/AssertGuard/Identity_1", "op": "Const", "input": ["^StatefulPartitionedCall/assert_equal_7/Assert/AssertGuard/pivot_f/_83", "^ConstantFoldingCtrl/StatefulPartitionedCall/assert_equal_7/Assert/AssertGuard/StatefulPartitionedCall/assert_equal_7/All/_85_0"], "attr": {"value": {"tensor": {"dtype": "DT_BOOL", "tensorShape": {}}}, "dtype": {"type": "DT_BOOL"}}}, {"name": "StatefulPartitionedCall/onnx_tf_prefix_/transformer_encoder/layers.0/self_attn/Transpose", "op": "Transpose", "input": ["StatefulPartitionedCall/onnx_tf_prefix_/pos_encoder/Add_transpose_back", "StatefulPartitionedCall/onnx_tf_prefix_/transformer_encoder/layers.0/self_attn/Transpose/perm"], "attr": {"_input_shapes": {"list": {"shape": [{"dim": [{"size": "-23"}, {"size": "-24"}, {"size": "128"}]}, {"dim": [{"size": "3"}]}]}}, "T": {"type": "DT_FLOAT"}, "Tperm": {"type": "DT_INT32"}}}, {"name": "StatefulPartitionedCall/assert_equal_7/Assert/AssertGuard/output/_88", "op": "Merge", "input": ["Func/StatefulPartitionedCall/assert_equal_7/Assert/AssertGuard/then/_80/output/_270", "StatefulPartitionedCall/assert_equal_7/Assert/AssertGuard/else/_81/assert_equal_7/Assert/AssertGuard/Identity_1"], "attr": {"T": {"type": "DT_BOOL"}, "N": {"i": "2"}}}, {"name": "StatefulPartitionedCall/onnx_tf_prefix_/transformer_encoder/layers.0/self_attn/Shape_1", "op": "Shape", "input": ["StatefulPartitionedCall/onnx_tf_prefix_/transformer_encoder/layers.0/self_attn/Transpose"], "attr": {"out_type": {"type": "DT_INT64"}, "T": {"type": "DT_FLOAT"}}, "experimentalType": {"typeId": "TFT_PRODUCT", "args": [{"typeId": "TFT_SHAPE_TENSOR", "args": [{"typeId": "TFT_INT64"}]}]}}, {"name": "StatefulPartitionedCall/onnx_tf_prefix_/transformer_encoder/layers.0/self_attn/Shape", "op": "Shape", "input": ["StatefulPartitionedCall/onnx_tf_prefix_/transformer_encoder/layers.0/self_attn/Transpose"], "attr": {"T": {"type": "DT_FLOAT"}, "out_type": {"type": "DT_INT64"}}, "experimentalType": {"typeId": "TFT_PRODUCT", "args": [{"typeId": "TFT_SHAPE_TENSOR", "args": [{"typeId": "TFT_INT64"}]}]}}, {"name": "StatefulPartitionedCall/onnx_tf_prefix_/transformer_encoder/layers.0/self_attn/Shape_2", "op": "Shape", "input": ["StatefulPartitionedCall/onnx_tf_prefix_/transformer_encoder/layers.0/self_attn/Transpose"], "attr": {"T": {"type": "DT_FLOAT"}, "out_type": {"type": "DT_INT64"}}, "experimentalType": {"typeId": "TFT_PRODUCT", "args": [{"typeId": "TFT_SHAPE_TENSOR", "args": [{"typeId": "TFT_INT64"}]}]}}, {"name": "StatefulPartitionedCall/onnx_tf_prefix_/transformer_encoder/layers.0/self_attn/Shape_3", "op": "Shape", "input": ["StatefulPartitionedCall/onnx_tf_prefix_/transformer_encoder/layers.0/self_attn/Transpose"], "attr": {"out_type": {"type": "DT_INT64"}, "T": {"type": "DT_FLOAT"}}, "experimentalType": {"typeId": "TFT_PRODUCT", "args": [{"typeId": "TFT_SHAPE_TENSOR", "args": [{"typeId": "TFT_INT64"}]}]}}, {"name": "StatefulPartitionedCall/onnx_tf_prefix_/transformer_encoder/layers.0/self_attn/MatMul", "op": "BatchMatMulV2", "input": ["StatefulPartitionedCall/onnx_tf_prefix_/transformer_encoder/layers.0/self_attn/Transpose", "unknown_5"], "attr": {"adj_x": {"b": false}, "T": {"type": "DT_FLOAT"}, "adj_y": {"b": false}}}, {"name": "StatefulPartitionedCall/FloorMod_3", "op": "Const", "input": ["^StatefulPartitionedCall/assert_equal_7/Assert/AssertGuard/output/_88"], "attr": {"value": {"tensor": {"dtype": "DT_INT64", "tensorShape": {}}}, "dtype": {"type": "DT_INT64"}}}, {"name": "StatefulPartitionedCall/onnx_tf_prefix_/transformer_encoder/layers.0/self_attn/Gather_2/axis", "op": "Const", "input": ["^StatefulPartitionedCall/assert_equal_7/Assert/AssertGuard/output/_88"], "attr": {"dtype": {"type": "DT_INT32"}, "value": {"tensor": {"dtype": "DT_INT32", "tensorShape": {}}}}}, {"name": "StatefulPartitionedCall/onnx_tf_prefix_/transformer_encoder/layers.0/self_attn/Gather_1", "op": "GatherV2", "input": ["StatefulPartitionedCall/onnx_tf_prefix_/transformer_encoder/layers.0/self_attn/Shape_1", "StatefulPartitionedCall/FloorMod_2", "StatefulPartitionedCall/onnx_tf_prefix_/transformer_encoder/layers.0/self_attn/Gather_1/axis"], "attr": {"Taxis": {"type": "DT_INT32"}, "batch_dims": {"i": "0"}, "Tindices": {"type": "DT_INT64"}, "Tparams": {"type": "DT_INT64"}}}, {"name": "StatefulPartitionedCall/onnx_tf_prefix_/transformer_encoder/layers.0/self_attn/Gather", "op": "GatherV2", "input": ["StatefulPartitionedCall/onnx_tf_prefix_/transformer_encoder/layers.0/self_attn/Shape", "StatefulPartitionedCall/FloorMod_1", "StatefulPartitionedCall/onnx_tf_prefix_/transformer_encoder/layers.0/self_attn/Gather/axis"], "attr": {"Tindices": {"type": "DT_INT64"}, "batch_dims": {"i": "0"}, "Taxis": {"type": "DT_INT32"}, "Tparams": {"type": "DT_INT64"}}}, {"name": "StatefulPartitionedCall/onnx_tf_prefix_/transformer_encoder/layers.0/self_attn/Slice", "op": "StridedSlice", "input": ["StatefulPartitionedCall/onnx_tf_prefix_/transformer_encoder/layers.0/self_attn/Shape_3", "StatefulPartitionedCall/SparseToDense_7", "StatefulPartitionedCall/SelectV2_7", "StatefulPartitionedCall/ones"], "attr": {"shrink_axis_mask": {"i": "0"}, "ellipsis_mask": {"i": "0"}, "begin_mask": {"i": "0"}, "end_mask": {"i": "0"}, "T": {"type": "DT_INT64"}, "new_axis_mask": {"i": "0"}, "Index": {"type": "DT_INT64"}}}, {"name": "StatefulPartitionedCall/onnx_tf_prefix_/transformer_encoder/layers.0/self_attn/Add", "op": "AddV2", "input": ["unknown_6", "StatefulPartitionedCall/onnx_tf_prefix_/transformer_encoder/layers.0/self_attn/MatMul"], "attr": {"T": {"type": "DT_FLOAT"}}}, {"name": "StatefulPartitionedCall/onnx_tf_prefix_/transformer_encoder/layers.0/self_attn/Gather_2", "op": "GatherV2", "input": ["StatefulPartitionedCall/onnx_tf_prefix_/transformer_encoder/layers.0/self_attn/Shape_2", "StatefulPartitionedCall/FloorMod_3", "StatefulPartitionedCall/onnx_tf_prefix_/transformer_encoder/layers.0/self_attn/Gather_2/axis"], "attr": {"Taxis": {"type": "DT_INT32"}, "Tindices": {"type": "DT_INT64"}, "batch_dims": {"i": "0"}, "Tparams": {"type": "DT_INT64"}}}, {"name": "StatefulPartitionedCall/ExpandDims_9", "op": "ExpandDims", "input": ["StatefulPartitionedCall/onnx_tf_prefix_/transformer_encoder/layers.0/self_attn/Gather_1", "StatefulPartitionedCall/ExpandDims_9/dim"], "attr": {"Tdim": {"type": "DT_INT32"}, "T": {"type": "DT_INT64"}}}, {"name": "StatefulPartitionedCall/ExpandDims_5", "op": "ExpandDims", "input": ["StatefulPartitionedCall/onnx_tf_prefix_/transformer_encoder/layers.0/self_attn/Gather_1", "StatefulPartitionedCall/ExpandDims_5/dim"], "attr": {"Tdim": {"type": "DT_INT32"}, "T": {"type": "DT_INT64"}}}, {"name": "StatefulPartitionedCall/ExpandDims_3", "op": "ExpandDims", "input": ["StatefulPartitionedCall/onnx_tf_prefix_/transformer_encoder/layers.0/self_attn/Gather_1", "StatefulPartitionedCall/ExpandDims_3/dim"], "attr": {"T": {"type": "DT_INT64"}, "Tdim": {"type": "DT_INT32"}}}, {"name": "StatefulPartitionedCall/ExpandDims_6", "op": "ExpandDims", "input": ["StatefulPartitionedCall/onnx_tf_prefix_/transformer_encoder/layers.0/self_attn/Gather_1", "StatefulPartitionedCall/ExpandDims_6/dim"], "attr": {"T": {"type": "DT_INT64"}, "Tdim": {"type": "DT_INT32"}}}, {"name": "StatefulPartitionedCall/onnx_tf_prefix_/transformer_encoder/layers.0/self_attn/Mul", "op": "Mul", "input": ["StatefulPartitionedCall/onnx_tf_prefix_/transformer_encoder/layers.0/self_attn/Gather_1", "StatefulPartitionedCall/onnx_tf_prefix_/transformer_encoder/layers.0/self_attn/Constant_19"], "attr": {"T": {"type": "DT_INT64"}}}, {"name": "StatefulPartitionedCall/ExpandDims_8", "op": "ExpandDims", "input": ["StatefulPartitionedCall/onnx_tf_prefix_/transformer_encoder/layers.0/self_attn/Gather", "StatefulPartitionedCall/ExpandDims_8/dim"], "attr": {"Tdim": {"type": "DT_INT32"}, "T": {"type": "DT_INT64"}}}, {"name": "StatefulPartitionedCall/ExpandDims_2", "op": "ExpandDims", "input": ["StatefulPartitionedCall/onnx_tf_prefix_/transformer_encoder/layers.0/self_attn/Gather", "StatefulPartitionedCall/ExpandDims_2/dim"], "attr": {"Tdim": {"type": "DT_INT32"}, "T": {"type": "DT_INT64"}}}, {"name": "StatefulPartitionedCall/ExpandDims_4", "op": "ExpandDims", "input": ["StatefulPartitionedCall/onnx_tf_prefix_/transformer_encoder/layers.0/self_attn/Gather", "StatefulPartitionedCall/ExpandDims_4/dim"], "attr": {"Tdim": {"type": "DT_INT32"}, "T": {"type": "DT_INT64"}}}, {"name": "StatefulPartitionedCall/onnx_tf_prefix_/transformer_encoder/layers.0/self_attn/Mul_3", "op": "Mul", "input": ["StatefulPartitionedCall/onnx_tf_prefix_/transformer_encoder/layers.0/self_attn/Gather_1", "StatefulPartitionedCall/onnx_tf_prefix_/transformer_encoder/layers.0/self_attn/Gather"], "attr": {"T": {"type": "DT_INT64"}}}, {"name": "StatefulPartitionedCall/Squeeze_4", "op": "Squeeze", "input": ["StatefulPartitionedCall/onnx_tf_prefix_/transformer_encoder/layers.0/self_attn/Slice"], "attr": {"squeeze_dims": {"list": {"i": ["0"]}}, "T": {"type": "DT_INT64"}}}, {"name": "StatefulPartitionedCall/Shape_14", "op": "Shape", "input": ["StatefulPartitionedCall/onnx_tf_prefix_/transformer_encoder/layers.0/self_attn/Add"], "attr": {"T": {"type": "DT_FLOAT"}, "out_type": {"type": "DT_INT64"}}, "experimentalType": {"typeId": "TFT_PRODUCT", "args": [{"typeId": "TFT_SHAPE_TENSOR", "args": [{"typeId": "TFT_INT64"}]}]}}, {"name": "StatefulPartitionedCall/onnx_tf_prefix_/transformer_encoder/layers.0/self_attn/Shape_4", "op": "Shape", "input": ["StatefulPartitionedCall/onnx_tf_prefix_/transformer_encoder/layers.0/self_attn/Add"], "attr": {"out_type": {"type": "DT_INT64"}, "T": {"type": "DT_FLOAT"}}, "experimentalType": {"typeId": "TFT_PRODUCT", "args": [{"typeId": "TFT_SHAPE_TENSOR", "args": [{"typeId": "TFT_INT64"}]}]}}, {"name": "StatefulPartitionedCall/onnx_tf_prefix_/transformer_encoder/layers.0/self_attn/Div/Cast", "op": "Cast", "input": ["StatefulPartitionedCall/onnx_tf_prefix_/transformer_encoder/layers.0/self_attn/Gather_2"], "attr": {"Truncate": {"b": false}, "SrcT": {"type": "DT_INT64"}, "DstT": {"type": "DT_DOUBLE"}}}, {"name": "StatefulPartitionedCall/ExpandDims_7", "op": "ExpandDims", "input": ["StatefulPartitionedCall/onnx_tf_prefix_/transformer_encoder/layers.0/self_attn/Gather_2", "StatefulPartitionedCall/ExpandDims_7/dim"], "attr": {"T": {"type": "DT_INT64"}, "Tdim": {"type": "DT_INT32"}}}, {"name": "StatefulPartitionedCall/ExpandDims_13", "op": "ExpandDims", "input": ["StatefulPartitionedCall/onnx_tf_prefix_/transformer_encoder/layers.0/self_attn/Mul", "StatefulPartitionedCall/ExpandDims_13/dim"], "attr": {"Tdim": {"type": "DT_INT32"}, "T": {"type": "DT_INT64"}}}, {"name": "StatefulPartitionedCall/ExpandDims_15", "op": "ExpandDims", "input": ["StatefulPartitionedCall/onnx_tf_prefix_/transformer_encoder/layers.0/self_attn/Mul", "StatefulPartitionedCall/ExpandDims_15/dim"], "attr": {"T": {"type": "DT_INT64"}, "Tdim": {"type": "DT_INT32"}}}, {"name": "StatefulPartitionedCall/ExpandDims_14", "op": "ExpandDims", "input": ["StatefulPartitionedCall/onnx_tf_prefix_/transformer_encoder/layers.0/self_attn/Mul", "StatefulPartitionedCall/ExpandDims_14/dim"], "attr": {"Tdim": {"type": "DT_INT32"}, "T": {"type": "DT_INT64"}}}, {"name": "StatefulPartitionedCall/ExpandDims_16", "op": "ExpandDims", "input": ["StatefulPartitionedCall/onnx_tf_prefix_/transformer_encoder/layers.0/self_attn/Mul_3", "StatefulPartitionedCall/ExpandDims_16/dim"], "attr": {"Tdim": {"type": "DT_INT32"}, "T": {"type": "DT_INT64"}}}, {"name": "StatefulPartitionedCall/ExpandDims_10", "op": "ExpandDims", "input": ["StatefulPartitionedCall/Squeeze_4", "StatefulPartitionedCall/ExpandDims_10/dim"], "attr": {"T": {"type": "DT_INT64"}, "Tdim": {"type": "DT_INT32"}}}, {"name": "StatefulPartitionedCall/onnx_tf_prefix_/transformer_encoder/layers.0/self_attn/Slice_1", "op": "StridedSlice", "input": ["StatefulPartitionedCall/onnx_tf_prefix_/transformer_encoder/layers.0/self_attn/Shape_4", "StatefulPartitionedCall/SparseToDense_9", "StatefulPartitionedCall/SelectV2_11", "StatefulPartitionedCall/ones_1"], "attr": {"begin_mask": {"i": "0"}, "Index": {"type": "DT_INT64"}, "end_mask": {"i": "0"}, "ellipsis_mask": {"i": "0"}, "T": {"type": "DT_INT64"}, "shrink_axis_mask": {"i": "0"}, "new_axis_mask": {"i": "0"}}}, {"name": "StatefulPartitionedCall/onnx_tf_prefix_/transformer_encoder/layers.0/self_attn/Slice_2", "op": "StridedSlice", "input": ["StatefulPartitionedCall/onnx_tf_prefix_/transformer_encoder/layers.0/self_attn/Shape_4", "StatefulPartitionedCall/SparseToDense_11", "StatefulPartitionedCall/SelectV2_15", "StatefulPartitionedCall/ones_2"], "attr": {"T": {"type": "DT_INT64"}, "new_axis_mask": {"i": "0"}, "shrink_axis_mask": {"i": "0"}, "begin_mask": {"i": "0"}, "end_mask": {"i": "0"}, "Index": {"type": "DT_INT64"}, "ellipsis_mask": {"i": "0"}}}, {"name": "StatefulPartitionedCall/onnx_tf_prefix_/transformer_encoder/layers.0/self_attn/Div", "op": "Mul", "input": ["StatefulPartitionedCall/onnx_tf_prefix_/transformer_encoder/layers.0/self_attn/Div/Cast", "ConstantFolding/StatefulPartitionedCall/onnx_tf_prefix_/transformer_encoder/layers.0/self_attn/Div_recip"], "attr": {"T": {"type": "DT_DOUBLE"}}}, {"name": "StatefulPartitionedCall/onnx_tf_prefix_/transformer_encoder/layers.0/self_attn/Concat_8", "op": "ConcatV2", "input": ["StatefulPartitionedCall/ExpandDims_16", "StatefulPartitionedCall/ExpandDims_7", "StatefulPartitionedCall/onnx_tf_prefix_/transformer_encoder/layers.0/self_attn/Concat_8/axis"], "attr": {"T": {"type": "DT_INT64"}, "N": {"i": "2"}, "Tidx": {"type": "DT_INT32"}}}, {"name": "StatefulPartitionedCall/onnx_tf_prefix_/transformer_encoder/layers.0/self_attn/Concat_1", "op": "ConcatV2", "input": ["StatefulPartitionedCall/onnx_tf_prefix_/transformer_encoder/layers.0/self_attn/Slice_1", "StatefulPartitionedCall/onnx_tf_prefix_/transformer_encoder/layers.0/self_attn/Constant_9", "StatefulPartitionedCall/ExpandDims_10", "StatefulPartitionedCall/onnx_tf_prefix_/transformer_encoder/layers.0/self_attn/Slice_2", "StatefulPartitionedCall/onnx_tf_prefix_/transformer_encoder/layers.0/self_attn/Concat_1/axis"], "attr": {"T": {"type": "DT_INT64"}, "Tidx": {"type": "DT_INT32"}, "N": {"i": "4"}}}, {"name": "StatefulPartitionedCall/Cast_16", "op": "Cast", "input": ["StatefulPartitionedCall/onnx_tf_prefix_/transformer_encoder/layers.0/self_attn/Div"], "attr": {"SrcT": {"type": "DT_DOUBLE"}, "Truncate": {"b": false}, "DstT": {"type": "DT_INT64"}}}, {"name": "StatefulPartitionedCall/Equal_16", "op": "Equal", "input": ["StatefulPartitionedCall/onnx_tf_prefix_/transformer_encoder/layers.0/self_attn/Concat_8", "StatefulPartitionedCall/Const_22"], "attr": {"T": {"type": "DT_INT64"}, "incompatible_shape_error": {"b": true}}}, {"name": "StatefulPartitionedCall/Equal_8", "op": "Equal", "input": ["StatefulPartitionedCall/onnx_tf_prefix_/transformer_encoder/layers.0/self_attn/Concat_1", "StatefulPartitionedCall/Const_13"], "attr": {"incompatible_shape_error": {"b": true}, "T": {"type": "DT_INT64"}}}, {"name": "StatefulPartitionedCall/ExpandDims_21", "op": "ExpandDims", "input": ["StatefulPartitionedCall/Cast_16", "StatefulPartitionedCall/ExpandDims_21/dim"], "attr": {"Tdim": {"type": "DT_INT32"}, "T": {"type": "DT_INT64"}}}, {"name": "StatefulPartitionedCall/ExpandDims_17", "op": "ExpandDims", "input": ["StatefulPartitionedCall/Cast_16", "StatefulPartitionedCall/ExpandDims_17/dim"], "attr": {"Tdim": {"type": "DT_INT32"}, "T": {"type": "DT_INT64"}}}, {"name": "StatefulPartitionedCall/ExpandDims_20", "op": "ExpandDims", "input": ["StatefulPartitionedCall/Cast_16", "StatefulPartitionedCall/ExpandDims_20/dim"], "attr": {"T": {"type": "DT_INT64"}, "Tdim": {"type": "DT_INT32"}}}, {"name": "StatefulPartitionedCall/ExpandDims_19", "op": "ExpandDims", "input": ["StatefulPartitionedCall/Cast_16", "StatefulPartitionedCall/ExpandDims_19/dim"], "attr": {"Tdim": {"type": "DT_INT32"}, "T": {"type": "DT_INT64"}}}, {"name": "StatefulPartitionedCall/ExpandDims_18", "op": "ExpandDims", "input": ["StatefulPartitionedCall/Cast_16", "StatefulPartitionedCall/ExpandDims_18/dim"], "attr": {"T": {"type": "DT_INT64"}, "Tdim": {"type": "DT_INT32"}}}, {"name": "StatefulPartitionedCall/ExpandDims_22", "op": "ExpandDims", "input": ["StatefulPartitionedCall/Cast_16", "StatefulPartitionedCall/ExpandDims_22/dim"], "attr": {"T": {"type": "DT_INT64"}, "Tdim": {"type": "DT_INT32"}}}, {"name": "StatefulPartitionedCall/Where_11", "op": "Where", "input": ["StatefulPartitionedCall/Equal_16"], "attr": {"T": {"type": "DT_BOOL"}}}, {"name": "StatefulPartitionedCall/Where_4", "op": "Where", "input": ["StatefulPartitionedCall/Equal_8"], "attr": {"T": {"type": "DT_BOOL"}}}, {"name": "StatefulPartitionedCall/onnx_tf_prefix_/transformer_encoder/layers.0/self_attn/Concat_2", "op": "ConcatV2", "input": ["StatefulPartitionedCall/ExpandDims_2", "StatefulPartitionedCall/ExpandDims_13", "StatefulPartitionedCall/ExpandDims_17", "StatefulPartitionedCall/onnx_tf_prefix_/transformer_encoder/layers.0/self_attn/Concat_2/axis"], "attr": {"Tidx": {"type": "DT_INT32"}, "T": {"type": "DT_INT64"}, "N": {"i": "3"}}}, {"name": "StatefulPartitionedCall/onnx_tf_prefix_/transformer_encoder/layers.0/self_attn/Concat_5", "op": "ConcatV2", "input": ["StatefulPartitionedCall/ExpandDims_3", "StatefulPartitionedCall/onnx_tf_prefix_/transformer_encoder/layers.0/self_attn/Constant_23", "StatefulPartitionedCall/ExpandDims_4", "StatefulPartitionedCall/ExpandDims_20", "StatefulPartitionedCall/onnx_tf_prefix_/transformer_encoder/layers.0/self_attn/Concat_5/axis"], "attr": {"T": {"type": "DT_INT64"}, "Tidx": {"type": "DT_INT32"}, "N": {"i": "4"}}}, {"name": "StatefulPartitionedCall/onnx_tf_prefix_/transformer_encoder/layers.0/self_attn/Concat_4", "op": "ConcatV2", "input": ["StatefulPartitionedCall/onnx_tf_prefix_/transformer_encoder/layers.0/self_attn/Constant_21", "StatefulPartitionedCall/ExpandDims_15", "StatefulPartitionedCall/ExpandDims_19", "StatefulPartitionedCall/onnx_tf_prefix_/transformer_encoder/layers.0/self_attn/Concat_4/axis"], "attr": {"T": {"type": "DT_INT64"}, "Tidx": {"type": "DT_INT32"}, "N": {"i": "3"}}}, {"name": "StatefulPartitionedCall/onnx_tf_prefix_/transformer_encoder/layers.0/self_attn/Concat_3", "op": "ConcatV2", "input": ["StatefulPartitionedCall/onnx_tf_prefix_/transformer_encoder/layers.0/self_attn/Constant_20", "StatefulPartitionedCall/ExpandDims_14", "StatefulPartitionedCall/ExpandDims_18", "StatefulPartitionedCall/onnx_tf_prefix_/transformer_encoder/layers.0/self_attn/Concat_3/axis"], "attr": {"Tidx": {"type": "DT_INT32"}, "T": {"type": "DT_INT64"}, "N": {"i": "3"}}}, {"name": "StatefulPartitionedCall/Squeeze_13", "op": "Squeeze", "input": ["StatefulPartitionedCall/Where_11"], "attr": {"squeeze_dims": {"list": {"i": ["-1"]}}, "T": {"type": "DT_INT64"}}}, {"name": "StatefulPartitionedCall/Squeeze_5", "op": "Squeeze", "input": ["StatefulPartitionedCall/Where_4"], "attr": {"T": {"type": "DT_INT64"}, "squeeze_dims": {"list": {"i": ["-1"]}}}}, {"name": "StatefulPartitionedCall/Equal_9", "op": "Equal", "input": ["StatefulPartitionedCall/onnx_tf_prefix_/transformer_encoder/layers.0/self_attn/Concat_2", "StatefulPartitionedCall/Const_14"], "attr": {"T": {"type": "DT_INT64"}, "incompatible_shape_error": {"b": true}}}, {"name": "StatefulPartitionedCall/Equal_12", "op": "Equal", "input": ["StatefulPartitionedCall/onnx_tf_prefix_/transformer_encoder/layers.0/self_attn/Concat_5", "StatefulPartitionedCall/Const_17"], "attr": {"T": {"type": "DT_INT64"}, "incompatible_shape_error": {"b": true}}}, {"name": "StatefulPartitionedCall/Equal_11", "op": "Equal", "input": ["StatefulPartitionedCall/onnx_tf_prefix_/transformer_encoder/layers.0/self_attn/Concat_4", "StatefulPartitionedCall/Const_16"], "attr": {"T": {"type": "DT_INT64"}, "incompatible_shape_error": {"b": true}}}, {"name": "StatefulPartitionedCall/Equal_10", "op": "Equal", "input": ["StatefulPartitionedCall/onnx_tf_prefix_/transformer_encoder/layers.0/self_attn/Concat_3", "StatefulPartitionedCall/Const_15"], "attr": {"incompatible_shape_error": {"b": true}, "T": {"type": "DT_INT64"}}}, {"name": "StatefulPartitionedCall/GatherV2_4", "op": "GatherV2", "input": ["StatefulPartitionedCall/Shape_14", "StatefulPartitionedCall/Squeeze_5", "StatefulPartitionedCall/GatherV2_4/axis"], "attr": {"Taxis": {"type": "DT_INT32"}, "batch_dims": {"i": "0"}, "Tparams": {"type": "DT_INT64"}, "Tindices": {"type": "DT_INT64"}}}, {"name": "StatefulPartitionedCall/Where_5", "op": "Where", "input": ["StatefulPartitionedCall/Equal_9"], "attr": {"T": {"type": "DT_BOOL"}}}, {"name": "StatefulPartitionedCall/Where_8", "op": "Where", "input": ["StatefulPartitionedCall/Equal_12"], "attr": {"T": {"type": "DT_BOOL"}}}, {"name": "StatefulPartitionedCall/Where_7", "op": "Where", "input": ["StatefulPartitionedCall/Equal_11"], "attr": {"T": {"type": "DT_BOOL"}}}, {"name": "StatefulPartitionedCall/Where_6", "op": "Where", "input": ["StatefulPartitionedCall/Equal_10"], "attr": {"T": {"type": "DT_BOOL"}}}, {"name": "StatefulPartitionedCall/SparseToDense_13", "op": "SparseToDense", "input": ["StatefulPartitionedCall/Where_4", "StatefulPartitionedCall/Cast_21", "StatefulPartitionedCall/GatherV2_4", "StatefulPartitionedCall/zeros_8"], "attr": {"validate_indices": {"b": true}, "T": {"type": "DT_INT64"}, "Tindices": {"type": "DT_INT64"}}}, {"name": "StatefulPartitionedCall/Squeeze_7", "op": "Squeeze", "input": ["StatefulPartitionedCall/Where_5"], "attr": {"squeeze_dims": {"list": {"i": ["-1"]}}, "T": {"type": "DT_INT64"}}}, {"name": "StatefulPartitionedCall/Squeeze_10", "op": "Squeeze", "input": ["StatefulPartitionedCall/Where_8"], "attr": {"squeeze_dims": {"list": {"i": ["-1"]}}, "T": {"type": "DT_INT64"}}}, {"name": "StatefulPartitionedCall/Squeeze_9", "op": "Squeeze", "input": ["StatefulPartitionedCall/Where_7"], "attr": {"squeeze_dims": {"list": {"i": ["-1"]}}, "T": {"type": "DT_INT64"}}}, {"name": "StatefulPartitionedCall/Squeeze_8", "op": "Squeeze", "input": ["StatefulPartitionedCall/Where_6"], "attr": {"T": {"type": "DT_INT64"}, "squeeze_dims": {"list": {"i": ["-1"]}}}}, {"name": "StatefulPartitionedCall/add_20", "op": "AddV2", "input": ["StatefulPartitionedCall/onnx_tf_prefix_/transformer_encoder/layers.0/self_attn/Concat_1", "StatefulPartitionedCall/SparseToDense_13"], "attr": {"T": {"type": "DT_INT64"}}}, {"name": "StatefulPartitionedCall/onnx_tf_prefix_/transformer_encoder/layers.0/self_attn/Reshape_2", "op": "Reshape", "input": ["StatefulPartitionedCall/onnx_tf_prefix_/transformer_encoder/layers.0/self_attn/Add", "StatefulPartitionedCall/add_20"], "attr": {"T": {"type": "DT_FLOAT"}, "Tshape": {"type": "DT_INT64"}}}, {"name": "StatefulPartitionedCall/ExpandDims_23", "op": "ExpandDims", "input": ["StatefulPartitionedCall/onnx_tf_prefix_/transformer_encoder/layers.0/self_attn/Reshape_2", "StatefulPartitionedCall/ExpandDims_23/dim"], "attr": {"Tdim": {"type": "DT_INT32"}, "T": {"type": "DT_FLOAT"}}}, {"name": "StatefulPartitionedCall/onnx_tf_prefix_/transformer_encoder/layers.0/self_attn/Transpose_1", "op": "Transpose", "input": ["StatefulPartitionedCall/ExpandDims_23", "StatefulPartitionedCall/onnx_tf_prefix_/transformer_encoder/layers.0/self_attn/Transpose_1/perm"], "attr": {"Tperm": {"type": "DT_INT32"}, "_input_shapes": {"list": {"shape": [{"dim": [{"size": "1"}, {"size": "-35"}, {"size": "-36"}, {"size": "-37"}, {"size": "-38"}]}, {"dim": [{"size": "5"}]}]}}, "T": {"type": "DT_FLOAT"}}}, {"name": "StatefulPartitionedCall/Squeeze_6", "op": "Squeeze", "input": ["StatefulPartitionedCall/onnx_tf_prefix_/transformer_encoder/layers.0/self_attn/Transpose_1"], "attr": {"squeeze_dims": {"list": {"i": ["3"]}}, "T": {"type": "DT_FLOAT"}}}, {"name": "StatefulPartitionedCall/Shape_16", "op": "Shape", "input": ["StatefulPartitionedCall/Squeeze_6"], "attr": {"T": {"type": "DT_FLOAT"}, "out_type": {"type": "DT_INT64"}}, "experimentalType": {"typeId": "TFT_PRODUCT", "args": [{"typeId": "TFT_SHAPE_TENSOR", "args": [{"typeId": "TFT_INT64"}]}]}}, {"name": "StatefulPartitionedCall/Shape_18", "op": "Shape", "input": ["StatefulPartitionedCall/Squeeze_6"], "attr": {"T": {"type": "DT_FLOAT"}, "out_type": {"type": "DT_INT64"}}, "experimentalType": {"typeId": "TFT_PRODUCT", "args": [{"typeId": "TFT_SHAPE_TENSOR", "args": [{"typeId": "TFT_INT64"}]}]}}, {"name": "StatefulPartitionedCall/Shape_20", "op": "Shape", "input": ["StatefulPartitionedCall/Squeeze_6"], "attr": {"T": {"type": "DT_FLOAT"}, "out_type": {"type": "DT_INT64"}}, "experimentalType": {"typeId": "TFT_PRODUCT", "args": [{"typeId": "TFT_SHAPE_TENSOR", "args": [{"typeId": "TFT_INT64"}]}]}}, {"name": "StatefulPartitionedCall/strided_slice_6", "op": "StridedSlice", "input": ["StatefulPartitionedCall/Shape_16", "StatefulPartitionedCall/strided_slice_6/stack", "StatefulPartitionedCall/strided_slice_6/stack_1", "StatefulPartitionedCall/strided_slice_6/stack_2"], "attr": {"shrink_axis_mask": {"i": "1"}, "begin_mask": {"i": "0"}, "end_mask": {"i": "0"}, "new_axis_mask": {"i": "0"}, "Index": {"type": "DT_INT32"}, "T": {"type": "DT_INT64"}, "ellipsis_mask": {"i": "0"}}}, {"name": "StatefulPartitionedCall/strided_slice_8", "op": "StridedSlice", "input": ["StatefulPartitionedCall/Shape_18", "StatefulPartitionedCall/strided_slice_8/stack", "StatefulPartitionedCall/strided_slice_8/stack_1", "StatefulPartitionedCall/strided_slice_8/stack_2"], "attr": {"end_mask": {"i": "0"}, "new_axis_mask": {"i": "0"}, "shrink_axis_mask": {"i": "1"}, "begin_mask": {"i": "0"}, "Index": {"type": "DT_INT32"}, "ellipsis_mask": {"i": "0"}, "T": {"type": "DT_INT64"}}}, {"name": "StatefulPartitionedCall/strided_slice_10", "op": "StridedSlice", "input": ["StatefulPartitionedCall/Shape_20", "StatefulPartitionedCall/strided_slice_10/stack", "StatefulPartitionedCall/strided_slice_10/stack_1", "StatefulPartitionedCall/strided_slice_10/stack_2"], "attr": {"end_mask": {"i": "0"}, "new_axis_mask": {"i": "0"}, "Index": {"type": "DT_INT32"}, "T": {"type": "DT_INT64"}, "ellipsis_mask": {"i": "0"}, "shrink_axis_mask": {"i": "1"}, "begin_mask": {"i": "0"}}}, {"name": "StatefulPartitionedCall/Neg_4", "op": "Neg", "input": ["StatefulPartitionedCall/strided_slice_6"], "attr": {"T": {"type": "DT_INT64"}}}, {"name": "StatefulPartitionedCall/Less_16", "op": "Less", "input": ["StatefulPartitionedCall/onnx_tf_prefix_/pos_encoder/Constant_2", "StatefulPartitionedCall/strided_slice_6"], "attr": {"T": {"type": "DT_INT64"}}}, {"name": "StatefulPartitionedCall/Neg_5", "op": "Neg", "input": ["StatefulPartitionedCall/strided_slice_8"], "attr": {"T": {"type": "DT_INT64"}}}, {"name": "StatefulPartitionedCall/Less_17", "op": "Less", "input": ["StatefulPartitionedCall/onnx_tf_prefix_/pos_encoder/Constant", "StatefulPartitionedCall/strided_slice_8"], "attr": {"T": {"type": "DT_INT64"}}}, {"name": "StatefulPartitionedCall/Neg_6", "op": "Neg", "input": ["StatefulPartitionedCall/strided_slice_10"], "attr": {"T": {"type": "DT_INT64"}}}, {"name": "StatefulPartitionedCall/Less_18", "op": "Less", "input": ["StatefulPartitionedCall/onnx_tf_prefix_/transformer_encoder/layers.0/self_attn/Constant_2", "StatefulPartitionedCall/strided_slice_10"], "attr": {"T": {"type": "DT_INT64"}}}, {"name": "StatefulPartitionedCall/GreaterEqual_4", "op": "GreaterEqual", "input": ["StatefulPartitionedCall/onnx_tf_prefix_/pos_encoder/Constant_2", "StatefulPartitionedCall/Neg_4"], "attr": {"T": {"type": "DT_INT64"}}}, {"name": "StatefulPartitionedCall/GreaterEqual_5", "op": "GreaterEqual", "input": ["StatefulPartitionedCall/onnx_tf_prefix_/pos_encoder/Constant", "StatefulPartitionedCall/Neg_5"], "attr": {"T": {"type": "DT_INT64"}}}, {"name": "StatefulPartitionedCall/GreaterEqual_6", "op": "GreaterEqual", "input": ["StatefulPartitionedCall/onnx_tf_prefix_/transformer_encoder/layers.0/self_attn/Constant_2", "StatefulPartitionedCall/Neg_6"], "attr": {"T": {"type": "DT_INT64"}}}, {"name": "StatefulPartitionedCall/LogicalAnd_4", "op": "LogicalAnd", "input": ["StatefulPartitionedCall/GreaterEqual_4", "StatefulPartitionedCall/Less_16"]}, {"name": "StatefulPartitionedCall/LogicalAnd_5", "op": "LogicalAnd", "input": ["StatefulPartitionedCall/GreaterEqual_5", "StatefulPartitionedCall/Less_17"]}, {"name": "StatefulPartitionedCall/LogicalAnd_6", "op": "LogicalAnd", "input": ["StatefulPartitionedCall/GreaterEqual_6", "StatefulPartitionedCall/Less_18"]}, {"name": "StatefulPartitionedCall/assert_equal_9/Equal", "op": "Equal", "input": ["StatefulPartitionedCall/LogicalAnd_4", "StatefulPartitionedCall/assert_equal_9/y"], "attr": {"T": {"type": "DT_BOOL"}, "incompatible_shape_error": {"b": true}}}, {"name": "StatefulPartitionedCall/assert_equal_11/Equal", "op": "Equal", "input": ["StatefulPartitionedCall/LogicalAnd_5", "StatefulPartitionedCall/assert_equal_11/y"], "attr": {"T": {"type": "DT_BOOL"}, "incompatible_shape_error": {"b": true}}}, {"name": "StatefulPartitionedCall/assert_equal_13/Equal", "op": "Equal", "input": ["StatefulPartitionedCall/LogicalAnd_6", "StatefulPartitionedCall/assert_equal_13/y"], "attr": {"T": {"type": "DT_BOOL"}, "incompatible_shape_error": {"b": true}}}, {"name": "StatefulPartitionedCall/assert_equal_9/Assert/AssertGuard/StatefulPartitionedCall/assert_equal_9/All/_95", "op": "Switch", "input": ["StatefulPartitionedCall/assert_equal_9/Equal", "StatefulPartitionedCall/assert_equal_9/Equal"], "attr": {"T": {"type": "DT_BOOL"}}}, {"name": "StatefulPartitionedCall/assert_equal_9/Assert/AssertGuard/switch_pred/_92", "op": "Switch", "input": ["StatefulPartitionedCall/assert_equal_9/Equal", "StatefulPartitionedCall/assert_equal_9/Equal", "^StatefulPartitionedCall/assert_equal_7/Assert/AssertGuard/branch_executed/_89"], "attr": {"T": {"type": "DT_BOOL"}}}, {"name": "StatefulPartitionedCall/assert_equal_9/Assert/AssertGuard/StatefulPartitionedCall/assert_equal_9/y/_97", "op": "Switch", "input": ["StatefulPartitionedCall/assert_equal_9/y", "StatefulPartitionedCall/assert_equal_9/Equal"], "attr": {"T": {"type": "DT_BOOL"}}}, {"name": "StatefulPartitionedCall/assert_equal_9/Assert/AssertGuard/StatefulPartitionedCall/LogicalAnd_4/_96", "op": "Switch", "input": ["StatefulPartitionedCall/LogicalAnd_4", "StatefulPartitionedCall/assert_equal_9/Equal"], "attr": {"T": {"type": "DT_BOOL"}}}, {"name": "StatefulPartitionedCall/assert_equal_11/Assert/AssertGuard/StatefulPartitionedCall/assert_equal_11/All/_105", "op": "Switch", "input": ["StatefulPartitionedCall/assert_equal_11/Equal", "StatefulPartitionedCall/assert_equal_11/Equal"], "attr": {"T": {"type": "DT_BOOL"}}}, {"name": "StatefulPartitionedCall/assert_equal_11/Assert/AssertGuard/StatefulPartitionedCall/assert_equal_11/y/_107", "op": "Switch", "input": ["StatefulPartitionedCall/assert_equal_11/y", "StatefulPartitionedCall/assert_equal_11/Equal"], "attr": {"T": {"type": "DT_BOOL"}}}, {"name": "StatefulPartitionedCall/assert_equal_11/Assert/AssertGuard/StatefulPartitionedCall/LogicalAnd_5/_106", "op": "Switch", "input": ["StatefulPartitionedCall/LogicalAnd_5", "StatefulPartitionedCall/assert_equal_11/Equal"], "attr": {"T": {"type": "DT_BOOL"}}}, {"name": "StatefulPartitionedCall/assert_equal_13/Assert/AssertGuard/StatefulPartitionedCall/assert_equal_13/All/_115", "op": "Switch", "input": ["StatefulPartitionedCall/assert_equal_13/Equal", "StatefulPartitionedCall/assert_equal_13/Equal"], "attr": {"T": {"type": "DT_BOOL"}}}, {"name": "StatefulPartitionedCall/assert_equal_13/Assert/AssertGuard/StatefulPartitionedCall/assert_equal_13/y/_117", "op": "Switch", "input": ["StatefulPartitionedCall/assert_equal_13/y", "StatefulPartitionedCall/assert_equal_13/Equal"], "attr": {"T": {"type": "DT_BOOL"}}}, {"name": "StatefulPartitionedCall/assert_equal_13/Assert/AssertGuard/StatefulPartitionedCall/LogicalAnd_6/_116", "op": "Switch", "input": ["StatefulPartitionedCall/LogicalAnd_6", "StatefulPartitionedCall/assert_equal_13/Equal"], "attr": {"T": {"type": "DT_BOOL"}}}, {"name": "ConstantFoldingCtrl/StatefulPartitionedCall/assert_equal_9/Assert/AssertGuard/StatefulPartitionedCall/assert_equal_9/All/_95_0", "op": "Identity", "input": ["StatefulPartitionedCall/assert_equal_9/Assert/AssertGuard/StatefulPartitionedCall/assert_equal_9/All/_95"], "attr": {"T": {"type": "DT_BOOL"}}}, {"name": "ConstantFoldingCtrl/StatefulPartitionedCall/assert_equal_9/Assert/AssertGuard/StatefulPartitionedCall/assert_equal_9/All/_95_1", "op": "Identity", "input": ["StatefulPartitionedCall/assert_equal_9/Assert/AssertGuard/StatefulPartitionedCall/assert_equal_9/All/_95:1"], "attr": {"T": {"type": "DT_BOOL"}}}, {"name": "ConstantFoldingCtrl/StatefulPartitionedCall/assert_equal_9/Assert/AssertGuard/switch_pred/_92_0", "op": "Identity", "input": ["StatefulPartitionedCall/assert_equal_9/Assert/AssertGuard/switch_pred/_92"], "attr": {"T": {"type": "DT_BOOL"}}}, {"name": "ConstantFoldingCtrl/StatefulPartitionedCall/assert_equal_9/Assert/AssertGuard/switch_pred/_92_1", "op": "Identity", "input": ["StatefulPartitionedCall/assert_equal_9/Assert/AssertGuard/switch_pred/_92:1"], "attr": {"T": {"type": "DT_BOOL"}}}, {"name": "ConstantFoldingCtrl/StatefulPartitionedCall/assert_equal_11/Assert/AssertGuard/StatefulPartitionedCall/assert_equal_11/All/_105_0", "op": "Identity", "input": ["StatefulPartitionedCall/assert_equal_11/Assert/AssertGuard/StatefulPartitionedCall/assert_equal_11/All/_105"], "attr": {"T": {"type": "DT_BOOL"}}}, {"name": "ConstantFoldingCtrl/StatefulPartitionedCall/assert_equal_11/Assert/AssertGuard/StatefulPartitionedCall/assert_equal_11/All/_105_1", "op": "Identity", "input": ["StatefulPartitionedCall/assert_equal_11/Assert/AssertGuard/StatefulPartitionedCall/assert_equal_11/All/_105:1"], "attr": {"T": {"type": "DT_BOOL"}}}, {"name": "ConstantFoldingCtrl/StatefulPartitionedCall/assert_equal_13/Assert/AssertGuard/StatefulPartitionedCall/assert_equal_13/All/_115_0", "op": "Identity", "input": ["StatefulPartitionedCall/assert_equal_13/Assert/AssertGuard/StatefulPartitionedCall/assert_equal_13/All/_115"], "attr": {"T": {"type": "DT_BOOL"}}}, {"name": "ConstantFoldingCtrl/StatefulPartitionedCall/assert_equal_13/Assert/AssertGuard/StatefulPartitionedCall/assert_equal_13/All/_115_1", "op": "Identity", "input": ["StatefulPartitionedCall/assert_equal_13/Assert/AssertGuard/StatefulPartitionedCall/assert_equal_13/All/_115:1"], "attr": {"T": {"type": "DT_BOOL"}}}, {"name": "StatefulPartitionedCall/assert_equal_9/Assert/AssertGuard/pivot_f/_93", "op": "Const", "input": ["^ConstantFoldingCtrl/StatefulPartitionedCall/assert_equal_9/Assert/AssertGuard/switch_pred/_92_0"], "attr": {"dtype": {"type": "DT_BOOL"}, "value": {"tensor": {"dtype": "DT_BOOL", "tensorShape": {}}}}}, {"name": "StatefulPartitionedCall/assert_equal_9/Assert/AssertGuard/pivot_t/_94", "op": "Const", "input": ["^ConstantFoldingCtrl/StatefulPartitionedCall/assert_equal_9/Assert/AssertGuard/switch_pred/_92_1"], "attr": {"dtype": {"type": "DT_BOOL"}, "value": {"tensor": {"dtype": "DT_BOOL", "tensorShape": {}}}}}, {"name": "StatefulPartitionedCall/assert_equal_9/Assert/AssertGuard/else/_91/assert_equal_9/Assert/AssertGuard/Assert", "op": "NoOp", "input": ["^ConstantFoldingCtrl/StatefulPartitionedCall/assert_equal_9/Assert/AssertGuard/StatefulPartitionedCall/assert_equal_9/All/_95_0", "^StatefulPartitionedCall/assert_equal_9/Assert/AssertGuard/StatefulPartitionedCall/LogicalAnd_4/_96", "^StatefulPartitionedCall/assert_equal_9/Assert/AssertGuard/pivot_f/_93", "^StatefulPartitionedCall/assert_equal_9/Assert/AssertGuard/StatefulPartitionedCall/assert_equal_9/y/_97"], "attr": {"_has_manual_control_dependencies": {"b": true}}}, {"name": "Func/StatefulPartitionedCall/assert_equal_9/Assert/AssertGuard/then/_90/output/_282", "op": "Const", "input": ["^ConstantFoldingCtrl/StatefulPartitionedCall/assert_equal_9/Assert/AssertGuard/StatefulPartitionedCall/assert_equal_9/All/_95_1", "^StatefulPartitionedCall/assert_equal_9/Assert/AssertGuard/pivot_t/_94"], "attr": {"dtype": {"type": "DT_BOOL"}, "value": {"tensor": {"dtype": "DT_BOOL", "tensorShape": {}}}}}, {"name": "Func/StatefulPartitionedCall/assert_equal_9/Assert/AssertGuard/else/_91/output/_288", "op": "Const", "input": ["^StatefulPartitionedCall/assert_equal_9/Assert/AssertGuard/else/_91/assert_equal_9/Assert/AssertGuard/Assert"], "attr": {"dtype": {"type": "DT_BOOL"}, "value": {"tensor": {"dtype": "DT_BOOL", "tensorShape": {}}}}}, {"name": "StatefulPartitionedCall/assert_equal_9/Assert/AssertGuard/branch_executed/_99", "op": "Merge", "input": ["StatefulPartitionedCall/assert_equal_9/Assert/AssertGuard/pivot_t/_94", "StatefulPartitionedCall/assert_equal_9/Assert/AssertGuard/pivot_f/_93", "^StatefulPartitionedCall/assert_equal_9/Assert/AssertGuard/else/_91/assert_equal_9/Assert/AssertGuard/Assert"], "attr": {"T": {"type": "DT_BOOL"}, "N": {"i": "2"}, "_has_manual_control_dependencies": {"b": true}}}, {"name": "StatefulPartitionedCall/assert_equal_9/Assert/AssertGuard/output/_98", "op": "Merge", "input": ["Func/StatefulPartitionedCall/assert_equal_9/Assert/AssertGuard/then/_90/output/_282", "Func/StatefulPartitionedCall/assert_equal_9/Assert/AssertGuard/else/_91/output/_288"], "attr": {"N": {"i": "2"}, "T": {"type": "DT_BOOL"}}}, {"name": "StatefulPartitionedCall/assert_equal_11/Assert/AssertGuard/switch_pred/_102", "op": "Switch", "input": ["StatefulPartitionedCall/assert_equal_11/Equal", "StatefulPartitionedCall/assert_equal_11/Equal", "^StatefulPartitionedCall/assert_equal_9/Assert/AssertGuard/branch_executed/_99"], "attr": {"T": {"type": "DT_BOOL"}}}, {"name": "StatefulPartitionedCall/strided_slice_7/stack", "op": "Const", "input": ["^StatefulPartitionedCall/assert_equal_9/Assert/AssertGuard/output/_98"], "attr": {"dtype": {"type": "DT_INT32"}, "value": {"tensor": {"dtype": "DT_INT32", "tensorShape": {"dim": [{"size": "1"}]}}}}}, {"name": "StatefulPartitionedCall/strided_slice_7/stack_1", "op": "Const", "input": ["^StatefulPartitionedCall/assert_equal_9/Assert/AssertGuard/output/_98"], "attr": {"value": {"tensor": {"dtype": "DT_INT32", "tensorShape": {"dim": [{"size": "1"}]}}}, "dtype": {"type": "DT_INT32"}}}, {"name": "StatefulPartitionedCall/strided_slice_7/stack_2", "op": "Const", "input": ["^StatefulPartitionedCall/assert_equal_9/Assert/AssertGuard/output/_98"], "attr": {"dtype": {"type": "DT_INT32"}, "value": {"tensor": {"dtype": "DT_INT32", "tensorShape": {"dim": [{"size": "1"}]}}}}}, {"name": "StatefulPartitionedCall/onnx_tf_prefix_/transformer_encoder/layers.0/self_attn/Gather_3/axis", "op": "Const", "input": ["^StatefulPartitionedCall/assert_equal_9/Assert/AssertGuard/output/_98"], "attr": {"dtype": {"type": "DT_INT32"}, "value": {"tensor": {"dtype": "DT_INT32", "tensorShape": {}}}}}, {"name": "StatefulPartitionedCall/Shape_17", "op": "Shape", "input": ["StatefulPartitionedCall/Squeeze_6", "^StatefulPartitionedCall/assert_equal_9/Assert/AssertGuard/output/_98"], "attr": {"T": {"type": "DT_FLOAT"}, "out_type": {"type": "DT_INT64"}}, "experimentalType": {"typeId": "TFT_PRODUCT", "args": [{"typeId": "TFT_SHAPE_TENSOR", "args": [{"typeId": "TFT_INT64"}]}]}}, {"name": "ConstantFoldingCtrl/StatefulPartitionedCall/assert_equal_11/Assert/AssertGuard/switch_pred/_102_0", "op": "Identity", "input": ["StatefulPartitionedCall/assert_equal_11/Assert/AssertGuard/switch_pred/_102"], "attr": {"T": {"type": "DT_BOOL"}}}, {"name": "ConstantFoldingCtrl/StatefulPartitionedCall/assert_equal_11/Assert/AssertGuard/switch_pred/_102_1", "op": "Identity", "input": ["StatefulPartitionedCall/assert_equal_11/Assert/AssertGuard/switch_pred/_102:1"], "attr": {"T": {"type": "DT_BOOL"}}}, {"name": "StatefulPartitionedCall/strided_slice_7", "op": "StridedSlice", "input": ["StatefulPartitionedCall/Shape_17", "StatefulPartitionedCall/strided_slice_7/stack", "StatefulPartitionedCall/strided_slice_7/stack_1", "StatefulPartitionedCall/strided_slice_7/stack_2"], "attr": {"shrink_axis_mask": {"i": "1"}, "T": {"type": "DT_INT64"}, "ellipsis_mask": {"i": "0"}, "begin_mask": {"i": "0"}, "new_axis_mask": {"i": "0"}, "end_mask": {"i": "0"}, "Index": {"type": "DT_INT32"}}}, {"name": "StatefulPartitionedCall/assert_equal_11/Assert/AssertGuard/pivot_f/_103", "op": "Const", "input": ["^ConstantFoldingCtrl/StatefulPartitionedCall/assert_equal_11/Assert/AssertGuard/switch_pred/_102_0"], "attr": {"value": {"tensor": {"dtype": "DT_BOOL", "tensorShape": {}}}, "dtype": {"type": "DT_BOOL"}}}, {"name": "StatefulPartitionedCall/assert_equal_11/Assert/AssertGuard/pivot_t/_104", "op": "Const", "input": ["^ConstantFoldingCtrl/StatefulPartitionedCall/assert_equal_11/Assert/AssertGuard/switch_pred/_102_1"], "attr": {"value": {"tensor": {"dtype": "DT_BOOL", "tensorShape": {}}}, "dtype": {"type": "DT_BOOL"}}}, {"name": "StatefulPartitionedCall/FloorMod_4", "op": "FloorMod", "input": ["StatefulPartitionedCall/strided_slice_7", "StatefulPartitionedCall/strided_slice_7"], "attr": {"T": {"type": "DT_INT64"}}}, {"name": "StatefulPartitionedCall/assert_equal_11/Assert/AssertGuard/else/_101/assert_equal_11/Assert/AssertGuard/Assert", "op": "NoOp", "input": ["^ConstantFoldingCtrl/StatefulPartitionedCall/assert_equal_11/Assert/AssertGuard/StatefulPartitionedCall/assert_equal_11/All/_105_0", "^StatefulPartitionedCall/assert_equal_11/Assert/AssertGuard/StatefulPartitionedCall/LogicalAnd_5/_106", "^StatefulPartitionedCall/assert_equal_11/Assert/AssertGuard/pivot_f/_103", "^StatefulPartitionedCall/assert_equal_11/Assert/AssertGuard/StatefulPartitionedCall/assert_equal_11/y/_107"], "attr": {"_has_manual_control_dependencies": {"b": true}}}, {"name": "Func/StatefulPartitionedCall/assert_equal_11/Assert/AssertGuard/then/_100/output/_294", "op": "Const", "input": ["^ConstantFoldingCtrl/StatefulPartitionedCall/assert_equal_11/Assert/AssertGuard/StatefulPartitionedCall/assert_equal_11/All/_105_1", "^StatefulPartitionedCall/assert_equal_11/Assert/AssertGuard/pivot_t/_104"], "attr": {"value": {"tensor": {"dtype": "DT_BOOL", "tensorShape": {}}}, "dtype": {"type": "DT_BOOL"}}}, {"name": "StatefulPartitionedCall/onnx_tf_prefix_/transformer_encoder/layers.0/self_attn/Gather_3", "op": "GatherV2", "input": ["StatefulPartitionedCall/Squeeze_6", "StatefulPartitionedCall/FloorMod_4", "StatefulPartitionedCall/onnx_tf_prefix_/transformer_encoder/layers.0/self_attn/Gather_3/axis"], "attr": {"batch_dims": {"i": "0"}, "Tparams": {"type": "DT_FLOAT"}, "Taxis": {"type": "DT_INT32"}, "Tindices": {"type": "DT_INT64"}}}, {"name": "Func/StatefulPartitionedCall/assert_equal_11/Assert/AssertGuard/else/_101/output/_300", "op": "Const", "input": ["^StatefulPartitionedCall/assert_equal_11/Assert/AssertGuard/else/_101/assert_equal_11/Assert/AssertGuard/Assert"], "attr": {"value": {"tensor": {"dtype": "DT_BOOL", "tensorShape": {}}}, "dtype": {"type": "DT_BOOL"}}}, {"name": "StatefulPartitionedCall/assert_equal_11/Assert/AssertGuard/branch_executed/_109", "op": "Merge", "input": ["StatefulPartitionedCall/assert_equal_11/Assert/AssertGuard/pivot_t/_104", "StatefulPartitionedCall/assert_equal_11/Assert/AssertGuard/pivot_f/_103", "^StatefulPartitionedCall/assert_equal_11/Assert/AssertGuard/else/_101/assert_equal_11/Assert/AssertGuard/Assert"], "attr": {"N": {"i": "2"}, "_has_manual_control_dependencies": {"b": true}, "T": {"type": "DT_BOOL"}}}, {"name": "StatefulPartitionedCall/Shape_22", "op": "Shape", "input": ["StatefulPartitionedCall/onnx_tf_prefix_/transformer_encoder/layers.0/self_attn/Gather_3"], "attr": {"T": {"type": "DT_FLOAT"}, "out_type": {"type": "DT_INT64"}}, "experimentalType": {"typeId": "TFT_PRODUCT", "args": [{"typeId": "TFT_SHAPE_TENSOR", "args": [{"typeId": "TFT_INT64"}]}]}}, {"name": "StatefulPartitionedCall/assert_equal_11/Assert/AssertGuard/output/_108", "op": "Merge", "input": ["Func/StatefulPartitionedCall/assert_equal_11/Assert/AssertGuard/then/_100/output/_294", "Func/StatefulPartitionedCall/assert_equal_11/Assert/AssertGuard/else/_101/output/_300"], "attr": {"N": {"i": "2"}, "T": {"type": "DT_BOOL"}}}, {"name": "StatefulPartitionedCall/assert_equal_13/Assert/AssertGuard/switch_pred/_112", "op": "Switch", "input": ["StatefulPartitionedCall/assert_equal_13/Equal", "StatefulPartitionedCall/assert_equal_13/Equal", "^StatefulPartitionedCall/assert_equal_11/Assert/AssertGuard/branch_executed/_109"], "attr": {"T": {"type": "DT_BOOL"}}}, {"name": "StatefulPartitionedCall/GatherV2_5", "op": "GatherV2", "input": ["StatefulPartitionedCall/Shape_22", "StatefulPartitionedCall/Squeeze_7", "StatefulPartitionedCall/GatherV2_5/axis"], "attr": {"batch_dims": {"i": "0"}, "Taxis": {"type": "DT_INT32"}, "Tparams": {"type": "DT_INT64"}, "Tindices": {"type": "DT_INT64"}}}, {"name": "StatefulPartitionedCall/strided_slice_9/stack", "op": "Const", "input": ["^StatefulPartitionedCall/assert_equal_11/Assert/AssertGuard/output/_108"], "attr": {"dtype": {"type": "DT_INT32"}, "value": {"tensor": {"dtype": "DT_INT32", "tensorShape": {"dim": [{"size": "1"}]}}}}}, {"name": "StatefulPartitionedCall/strided_slice_9/stack_1", "op": "Const", "input": ["^StatefulPartitionedCall/assert_equal_11/Assert/AssertGuard/output/_108"], "attr": {"dtype": {"type": "DT_INT32"}, "value": {"tensor": {"dtype": "DT_INT32", "tensorShape": {"dim": [{"size": "1"}]}}}}}, {"name": "StatefulPartitionedCall/strided_slice_9/stack_2", "op": "Const", "input": ["^StatefulPartitionedCall/assert_equal_11/Assert/AssertGuard/output/_108"], "attr": {"dtype": {"type": "DT_INT32"}, "value": {"tensor": {"dtype": "DT_INT32", "tensorShape": {"dim": [{"size": "1"}]}}}}}, {"name": "StatefulPartitionedCall/onnx_tf_prefix_/transformer_encoder/layers.0/self_attn/Gather_4/axis", "op": "Const", "input": ["^StatefulPartitionedCall/assert_equal_11/Assert/AssertGuard/output/_108"], "attr": {"dtype": {"type": "DT_INT32"}, "value": {"tensor": {"dtype": "DT_INT32", "tensorShape…
x_sng_Add_16", "op": "AddV2", "input": ["unknown_40", "StatefulPartitionedCall/onnx_tf_prefix_sng_Tanh_15"], "attr": {"T": {"type": "DT_FLOAT"}}}, {"name": "StatefulPartitionedCall/onnx_tf_prefix_sng_Mul_17", "op": "Mul", "input": ["StatefulPartitionedCall/onnx_tf_prefix_sng_Mul_10", "StatefulPartitionedCall/onnx_tf_prefix_sng_Add_16"], "attr": {"_grappler_ArithmeticOptimizer_MinimizeBroadcasts": {"b": true}, "T": {"type": "DT_FLOAT"}}}, {"name": "StatefulPartitionedCall/onnx_tf_prefix_/output_head/output_head.3/Add", "op": "AddV2", "input": ["StatefulPartitionedCall/onnx_tf_prefix_sng_Mul_17", "StatefulPartitionedCall/onnx_tf_prefix_/output_head/output_head.3/Constant_1"], "attr": {"T": {"type": "DT_FLOAT"}}}, {"name": "StatefulPartitionedCall/onnx_tf_prefix_/output_head/output_head.3/Mul_1", "op": "Mul", "input": ["StatefulPartitionedCall/onnx_tf_prefix_/output_head/output_head.3/Mul", "StatefulPartitionedCall/onnx_tf_prefix_/output_head/output_head.3/Add"], "attr": {"_grappler_ArithmeticOptimizer_MinimizeBroadcasts": {"b": true}, "T": {"type": "DT_FLOAT"}}}, {"name": "StatefulPartitionedCall/add_71", "op": "_FusedMatMul", "input": ["StatefulPartitionedCall/onnx_tf_prefix_/output_head/output_head.3/Mul_1", "StatefulPartitionedCall/transpose_4", "StatefulPartitionedCall/mul_9"], "device": "/device:CPU:0", "attr": {"leakyrelu_alpha": {"f": 0.2}, "transpose_b": {"b": false}, "epsilon": {"f": 0.0}, "fused_ops": {"list": {"s": ["Qmlhc0FkZA=="]}}, "transpose_a": {"b": false}, "num_args": {"i": "1"}, "_input_shapes": {"list": {"shape": [{"dim": [{"size": "-121"}, {"size": "512"}]}, {"dim": [{"size": "512"}, {"size": "38"}]}]}}, "T": {"type": "DT_FLOAT"}}}, {"name": "Identity", "op": "Identity", "input": ["StatefulPartitionedCall/add_71", "^StatefulPartitionedCall/assert_equal_9/Assert/AssertGuard/branch_executed/_99", "^StatefulPartitionedCall/assert_equal_7/Assert/AssertGuard/branch_executed/_89", "^StatefulPartitionedCall/assert_equal_1/Assert/AssertGuard/branch_executed/_59", "^StatefulPartitionedCall/assert_equal_11/Assert/AssertGuard/branch_executed/_109", "^StatefulPartitionedCall/assert_equal_13/Assert/AssertGuard/branch_executed/_119", "^StatefulPartitionedCall/assert_equal_15/Assert/AssertGuard/branch_executed/_129", "^StatefulPartitionedCall/assert_equal_17/Assert/AssertGuard/branch_executed/_139", "^StatefulPartitionedCall/assert_equal_19/Assert/AssertGuard/branch_executed/_149", "^StatefulPartitionedCall/assert_equal_21/Assert/AssertGuard/branch_executed/_159", "^StatefulPartitionedCall/assert_equal_23/Assert/AssertGuard/branch_executed/_169", "^StatefulPartitionedCall/assert_equal_25/Assert/AssertGuard/branch_executed/_179", "^StatefulPartitionedCall/assert_equal_27/Assert/AssertGuard/branch_executed/_189", "^StatefulPartitionedCall/assert_equal_29/Assert/AssertGuard/branch_executed/_199", "^StatefulPartitionedCall/assert_equal_3/Assert/AssertGuard/branch_executed/_69", "^StatefulPartitionedCall/assert_equal_31/Assert/AssertGuard/branch_executed/_209", "^StatefulPartitionedCall/assert_equal_33/Assert/AssertGuard/branch_executed/_219", "^StatefulPartitionedCall/assert_equal_35/Assert/AssertGuard/branch_executed/_229", "^StatefulPartitionedCall/assert_equal_5/Assert/AssertGuard/branch_executed/_79"], "attr": {"T": {"type": "DT_FLOAT"}}}], "library": {}, "versions": {"producer": 1645}}, "weightsManifest": [{"paths": ["group1-shard1of2.bin", "group1-shard2of2.bin"], "weights": [{"name": "StatefulPartitionedCall/onnx_tf_prefix_/output_head/output_head.3/Constant_2", "shape": [], "dtype": "float32"}, {"name": "unknown_37", "shape": [], "dtype": "float32"}, {"name": "unknown_40", "shape": [], "dtype": "float32"}, {"name": "unknown_39", "shape": [], "dtype": "float32"}, {"name": "unknown_38", "shape": [], "dtype": "float32"}, {"name": "StatefulPartitionedCall/onnx_tf_prefix_/output_head/output_head.1/Constant_2", "shape": [], "dtype": "float32"}, {"name": "unknown_31", "shape": [], "dtype": "float32"}, {"name": "unknown_34", "shape": [], "dtype": "float32"}, {"name": "unknown_33", "shape": [], "dtype": "float32"}, {"name": "unknown_32", "shape": [], "dtype": "float32"}, {"name": "StatefulPartitionedCall/onnx_tf_prefix_/Concat/axis", "shape": [], "dtype": "int32"}, {"name": "StatefulPartitionedCall/flatten_2/Const", "shape": [2], "dtype": "int32"}, {"name": "StatefulPartitionedCall/transpose_2", "shape": [191, 1024], "dtype": "float32"}, {"name": "StatefulPartitionedCall/mul_5", "shape": [1024], "dtype": "float32"}, {"name": "StatefulPartitionedCall/onnx_tf_prefix_/output_head/output_head.1/Constant_1", "shape": [], "dtype": "float32"}, {"name": "StatefulPartitionedCall/transpose_3", "shape": [1024, 512], "dtype": "float32"}, {"name": "StatefulPartitionedCall/mul_7", "shape": [512], "dtype": "float32"}, {"name": "StatefulPartitionedCall/onnx_tf_prefix_/output_head/output_head.3/Constant_1", "shape": [], "dtype": "float32"}, {"name": "StatefulPartitionedCall/transpose_4", "shape": [512, 38], "dtype": "float32"}, {"name": "StatefulPartitionedCall/mul_9", "shape": [38], "dtype": "float32"}, {"name": "StatefulPartitionedCall/onnx_tf_prefix_/auction_embedding/Constant", "shape": [], "dtype": "int32"}, {"name": "unknown_27", "shape": [128], "dtype": "float32"}, {"name": "StatefulPartitionedCall/onnx_tf_prefix_/transformer_encoder/layers.1/norm2/ReduceMean_1/reduction_indices", "shape": [], "dtype": "int32"}, {"name": "StatefulPartitionedCall/onnx_tf_prefix_/transformer_encoder/layers.1/norm2/Constant_1", "shape": [], "dtype": "float32"}, {"name": "unknown_26", "shape": [128], "dtype": "float32"}, {"name": "unknown_24", "shape": [512], "dtype": "float32"}, {"name": "unknown_21", "shape": [128], "dtype": "float32"}, {"name": "StatefulPartitionedCall/onnx_tf_prefix_/transformer_encoder/layers.1/norm1/ReduceMean_1/reduction_indices", "shape": [], "dtype": "int32"}, {"name": "StatefulPartitionedCall/onnx_tf_prefix_/transformer_encoder/layers.1/norm1/Constant_1", "shape": [], "dtype": "float32"}, {"name": "StatefulPartitionedCall/Cast_63", "shape": [1], "dtype": "int32"}, {"name": "StatefulPartitionedCall/ExpandDims_35/dim", "shape": [], "dtype": "int32"}, {"name": "StatefulPartitionedCall/ExpandDims_36/dim", "shape": [], "dtype": "int32"}, {"name": "StatefulPartitionedCall/Cast_60", "shape": [1], "dtype": "int32"}, {"name": "StatefulPartitionedCall/Cast_58", "shape": [1], "dtype": "int32"}, {"name": "StatefulPartitionedCall/ExpandDims_32/dim", "shape": [], "dtype": "int32"}, {"name": "StatefulPartitionedCall/onnx_tf_prefix_/transformer_encoder/layers.1/self_attn/Constant_23", "shape": [1], "dtype": "int32"}, {"name": "StatefulPartitionedCall/ExpandDims_51/dim", "shape": [], "dtype": "int32"}, {"name": "StatefulPartitionedCall/ExpandDims_48/dim", "shape": [], "dtype": "int32"}, {"name": "StatefulPartitionedCall/onnx_tf_prefix_/transformer_encoder/layers.1/self_attn/Concat_6/axis", "shape": [], "dtype": "int32"}, {"name": "StatefulPartitionedCall/Const_37", "shape": [], "dtype": "int32"}, {"name": "StatefulPartitionedCall/GatherV2_18/axis", "shape": [], "dtype": "int32"}, {"name": "StatefulPartitionedCall/zeros_27", "shape": [], "dtype": "int32"}, {"name": "StatefulPartitionedCall/onnx_tf_prefix_/transformer_encoder/layers.1/self_attn/Transpose_5/perm", "shape": [4], "dtype": "int32"}, {"name": "StatefulPartitionedCall/Cast_53", "shape": [1], "dtype": "int32"}, {"name": "StatefulPartitionedCall/Cast_50", "shape": [1], "dtype": "int32"}, {"name": "StatefulPartitionedCall/ExpandDims_29/dim", "shape": [], "dtype": "int32"}, {"name": "StatefulPartitionedCall/ExpandDims_40/dim", "shape": [], "dtype": "int32"}, {"name": "StatefulPartitionedCall/ExpandDims_44/dim", "shape": [], "dtype": "int32"}, {"name": "StatefulPartitionedCall/onnx_tf_prefix_/transformer_encoder/layers.1/self_attn/Concat_2/axis", "shape": [], "dtype": "int32"}, {"name": "StatefulPartitionedCall/Const_31", "shape": [], "dtype": "int32"}, {"name": "StatefulPartitionedCall/GatherV2_14/axis", "shape": [], "dtype": "int32"}, {"name": "StatefulPartitionedCall/zeros_22", "shape": [], "dtype": "int32"}, {"name": "StatefulPartitionedCall/onnx_tf_prefix_/transformer_encoder/layers.1/self_attn/Transpose_2/perm", "shape": [3], "dtype": "int32"}, {"name": "StatefulPartitionedCall/ExpandDims_30/dim", "shape": [], "dtype": "int32"}, {"name": "StatefulPartitionedCall/onnx_tf_prefix_/transformer_encoder/layers.1/self_attn/Constant_22", "shape": [1], "dtype": "int32"}, {"name": "StatefulPartitionedCall/ExpandDims_31/dim", "shape": [], "dtype": "int32"}, {"name": "StatefulPartitionedCall/ExpandDims_47/dim", "shape": [], "dtype": "int32"}, {"name": "StatefulPartitionedCall/onnx_tf_prefix_/transformer_encoder/layers.1/self_attn/Concat_5/axis", "shape": [], "dtype": "int32"}, {"name": "StatefulPartitionedCall/Const_34", "shape": [], "dtype": "int32"}, {"name": "StatefulPartitionedCall/GatherV2_17/axis", "shape": [], "dtype": "int32"}, {"name": "StatefulPartitionedCall/zeros_25", "shape": [], "dtype": "int32"}, {"name": "StatefulPartitionedCall/SelectV2_33", "shape": [1], "dtype": "int32"}, {"name": "StatefulPartitionedCall/zeros_26", "shape": [], "dtype": "int32"}, {"name": "StatefulPartitionedCall/Const_36", "shape": [], "dtype": "int32"}, {"name": "StatefulPartitionedCall/Shape_61", "shape": [1], "dtype": "int32"}, {"name": "StatefulPartitionedCall/ExpandDims_53", "shape": [1, 1], "dtype": "int32"}, {"name": "StatefulPartitionedCall/Cast_57", "shape": [1], "dtype": "int32"}, {"name": "StatefulPartitionedCall/SelectV2_34", "shape": [1], "dtype": "int32"}, {"name": "StatefulPartitionedCall/Const_35", "shape": [], "dtype": "int32"}, {"name": "StatefulPartitionedCall/ones_7", "shape": [1], "dtype": "int32"}, {"name": "StatefulPartitionedCall/Cast_59", "shape": [1], "dtype": "int32"}, {"name": "StatefulPartitionedCall/Cast_52", "shape": [1], "dtype": "int32"}, {"name": "StatefulPartitionedCall/onnx_tf_prefix_/transformer_encoder/layers.1/self_attn/Constant_20", "shape": [1], "dtype": "int32"}, {"name": "StatefulPartitionedCall/ExpandDims_42/dim", "shape": [], "dtype": "int32"}, {"name": "StatefulPartitionedCall/ExpandDims_46/dim", "shape": [], "dtype": "int32"}, {"name": "StatefulPartitionedCall/onnx_tf_prefix_/transformer_encoder/layers.1/self_attn/Concat_4/axis", "shape": [], "dtype": "int32"}, {"name": "StatefulPartitionedCall/Const_33", "shape": [], "dtype": "int32"}, {"name": "StatefulPartitionedCall/GatherV2_16/axis", "shape": [], "dtype": "int32"}, {"name": "StatefulPartitionedCall/zeros_24", "shape": [], "dtype": "int32"}, {"name": "StatefulPartitionedCall/onnx_tf_prefix_/transformer_encoder/layers.1/self_attn/Transpose_4/perm", "shape": [3], "dtype": "int32"}, {"name": "StatefulPartitionedCall/ExpandDims_33/dim", "shape": [], "dtype": "int32"}, {"name": "StatefulPartitionedCall/onnx_tf_prefix_/transformer_encoder/layers.1/self_attn/Constant_24", "shape": [1], "dtype": "int32"}, {"name": "StatefulPartitionedCall/Cast_51", "shape": [1], "dtype": "int32"}, {"name": "StatefulPartitionedCall/onnx_tf_prefix_/transformer_encoder/layers.1/self_attn/Constant_19", "shape": [1], "dtype": "int32"}, {"name": "StatefulPartitionedCall/onnx_tf_prefix_/transformer_encoder/layers.1/self_attn/Constant_18", "shape": [], "dtype": "int32"}, {"name": "StatefulPartitionedCall/ExpandDims_41/dim", "shape": [], "dtype": "int32"}, {"name": "StatefulPartitionedCall/ExpandDims_45/dim", "shape": [], "dtype": "int32"}, {"name": "StatefulPartitionedCall/onnx_tf_prefix_/transformer_encoder/layers.1/self_attn/Concat_3/axis", "shape": [], "dtype": "int32"}, {"name": "StatefulPartitionedCall/Const_32", "shape": [], "dtype": "int32"}, {"name": "StatefulPartitionedCall/GatherV2_15/axis", "shape": [], "dtype": "int32"}, {"name": "StatefulPartitionedCall/zeros_23", "shape": [], "dtype": "int32"}, {"name": "StatefulPartitionedCall/onnx_tf_prefix_/transformer_encoder/layers.1/self_attn/Transpose_3/perm", "shape": [3], "dtype": "int32"}, {"name": "StatefulPartitionedCall/ExpandDims_52/dim", "shape": [], "dtype": "int32"}, {"name": "ConstantFolding/StatefulPartitionedCall/onnx_tf_prefix_/transformer_encoder/layers.1/self_attn/Div_recip", "shape": [], "dtype": "float32"}, {"name": "StatefulPartitionedCall/ExpandDims_49/dim", "shape": [], "dtype": "int32"}, {"name": "StatefulPartitionedCall/onnx_tf_prefix_/transformer_encoder/layers.1/self_attn/Concat_7/axis", "shape": [], "dtype": "int32"}, {"name": "StatefulPartitionedCall/Const_38", "shape": [], "dtype": "int32"}, {"name": "StatefulPartitionedCall/GatherV2_19/axis", "shape": [], "dtype": "int32"}, {"name": "StatefulPartitionedCall/zeros_28", "shape": [], "dtype": "int32"}, {"name": "StatefulPartitionedCall/onnx_tf_prefix_/transformer_encoder/layers.1/self_attn/Transpose_6/perm", "shape": [4], "dtype": "int32"}, {"name": "StatefulPartitionedCall/ExpandDims_43/dim", "shape": [], "dtype": "int32"}, {"name": "StatefulPartitionedCall/ExpandDims_34/dim", "shape": [], "dtype": "int32"}, {"name": "StatefulPartitionedCall/onnx_tf_prefix_/transformer_encoder/layers.1/self_attn/Concat_8/axis", "shape": [], "dtype": "int32"}, {"name": "StatefulPartitionedCall/Const_39", "shape": [], "dtype": "int32"}, {"name": "StatefulPartitionedCall/GatherV2_20/axis", "shape": [], "dtype": "int32"}, {"name": "StatefulPartitionedCall/zeros_29", "shape": [], "dtype": "int32"}, {"name": "StatefulPartitionedCall/flatten_1/strided_slice/stack", "shape": [1], "dtype": "int32"}, {"name": "StatefulPartitionedCall/flatten_1/strided_slice/stack_1", "shape": [1], "dtype": "int32"}, {"name": "StatefulPartitionedCall/flatten_1/strided_slice/stack_2", "shape": [1], "dtype": "int32"}, {"name": "StatefulPartitionedCall/flatten_1/Reshape/shape/1", "shape": [], "dtype": "int32"}, {"name": "StatefulPartitionedCall/transpose_1", "shape": [128, 128], "dtype": "float32"}, {"name": "StatefulPartitionedCall/mul_3", "shape": [128], "dtype": "float32"}, {"name": "StatefulPartitionedCall/assert_equal_19/All", "shape": [], "dtype": "bool"}, {"name": "StatefulPartitionedCall/assert_equal_21/All", "shape": [], "dtype": "bool"}, {"name": "StatefulPartitionedCall/assert_equal_23/All", "shape": [], "dtype": "bool"}, {"name": "StatefulPartitionedCall/strided_slice_20/stack", "shape": [1], "dtype": "int32"}, {"name": "StatefulPartitionedCall/strided_slice_20/stack_1", "shape": [1], "dtype": "int32"}, {"name": "StatefulPartitionedCall/strided_slice_20/stack_2", "shape": [1], "dtype": "int32"}, {"name": "StatefulPartitionedCall/assert_equal_25/y", "shape": [], "dtype": "bool"}, {"name": "StatefulPartitionedCall/strided_slice_22/stack", "shape": [1], "dtype": "int32"}, {"name": "StatefulPartitionedCall/strided_slice_22/stack_1", "shape": [1], "dtype": "int32"}, {"name": "StatefulPartitionedCall/strided_slice_22/stack_2", "shape": [1], "dtype": "int32"}, {"name": "StatefulPartitionedCall/assert_equal_27/y", "shape": [], "dtype": "bool"}, {"name": "StatefulPartitionedCall/Cast_49", "shape": [1], "dtype": "int32"}, {"name": "StatefulPartitionedCall/SelectV2_25", "shape": [1], "dtype": "int32"}, {"name": "StatefulPartitionedCall/zeros_19", "shape": [], "dtype": "int32"}, {"name": "StatefulPartitionedCall/Const_27", "shape": [], "dtype": "int32"}, {"name": "StatefulPartitionedCall/Shape_41", "shape": [1], "dtype": "int32"}, {"name": "StatefulPartitionedCall/ExpandDims_38", "shape": [1, 1], "dtype": "int32"}, {"name": "StatefulPartitionedCall/Cast_46", "shape": [1], "dtype": "int32"}, {"name": "StatefulPartitionedCall/SelectV2_26", "shape": [1], "dtype": "int32"}, {"name": "StatefulPartitionedCall/Const_26", "shape": [], "dtype": "int32"}, {"name": "StatefulPartitionedCall/ones_5", "shape": [1], "dtype": "int32"}, {"name": "StatefulPartitionedCall/onnx_tf_prefix_/transformer_encoder/layers.1/self_attn/Constant_8", "shape": [1], "dtype": "int32"}, {"name": "StatefulPartitionedCall/SelectV2_21", "shape": [1], "dtype": "int32"}, {"name": "StatefulPartitionedCall/zeros_18", "shape": [], "dtype": "int32"}, {"name": "StatefulPartitionedCall/Const_25", "shape": [], "dtype": "int32"}, {"name": "StatefulPartitionedCall/Shape_40", "shape": [1], "dtype": "int32"}, {"name": "StatefulPartitionedCall/ExpandDims_28", "shape": [1, 1], "dtype": "int32"}, {"name": "StatefulPartitionedCall/Cast_43", "shape": [1], "dtype": "int32"}, {"name": "StatefulPartitionedCall/SelectV2_22", "shape": [1], "dtype": "int32"}, {"name": "StatefulPartitionedCall/Const_24", "shape": [], "dtype": "int32"}, {"name": "StatefulPartitionedCall/ones_4", "shape": [1], "dtype": "int32"}, {"name": "StatefulPartitionedCall/ExpandDims_37/dim", "shape": [], "dtype": "int32"}, {"name": "unknown_18", "shape": [384], "dtype": "float32"}, {"name": "unknown_15", "shape": [128], "dtype": "float32"}, {"name": "StatefulPartitionedCall/onnx_tf_prefix_/transformer_encoder/layers.0/norm2/ReduceMean_1/reduction_indices", "shape": [], "dtype": "int32"}, {"name": "StatefulPartitionedCall/onnx_tf_prefix_/transformer_encoder/layers.0/norm2/Constant_1", "shape": [], "dtype": "float32"}, {"name": "unknown_14", "shape": [128], "dtype": "float32"}, {"name": "unknown_12", "shape": [512], "dtype": "float32"}, {"name": "unknown_9", "shape": [128], "dtype": "float32"}, {"name": "StatefulPartitionedCall/Cast_35", "shape": [1], "dtype": "int32"}, {"name": "StatefulPartitionedCall/ExpandDims_8/dim", "shape": [], "dtype": "int32"}, {"name": "StatefulPartitionedCall/ExpandDims_9/dim", "shape": [], "dtype": "int32"}, {"name": "StatefulPartitionedCall/Cast_32", "shape": [1], "dtype": "int32"}, {"name": "StatefulPartitionedCall/Cast_30", "shape": [1], "dtype": "int32"}, {"name": "StatefulPartitionedCall/ExpandDims_5/dim", "shape": [], "dtype": "int32"}, {"name": "StatefulPartitionedCall/onnx_tf_prefix_/transformer_encoder/layers.0/self_attn/Constant_24", "shape": [1], "dtype": "int32"}, {"name": "StatefulPartitionedCall/ExpandDims_24/dim", "shape": [], "dtype": "int32"}, {"name": "StatefulPartitionedCall/ExpandDims_21/dim", "shape": [], "dtype": "int32"}, {"name": "StatefulPartitionedCall/onnx_tf_prefix_/transformer_encoder/layers.0/self_attn/Concat_6/axis", "shape": [], "dtype": "int32"}, {"name": "StatefulPartitionedCall/Const_20", "shape": [], "dtype": "int32"}, {"name": "StatefulPartitionedCall/GatherV2_9/axis", "shape": [], "dtype": "int32"}, {"name": "StatefulPartitionedCall/zeros_14", "shape": [], "dtype": "int32"}, {"name": "StatefulPartitionedCall/onnx_tf_prefix_/transformer_encoder/layers.0/self_attn/Transpose_5/perm", "shape": [4], "dtype": "int32"}, {"name": "StatefulPartitionedCall/Cast_25", "shape": [1], "dtype": "int32"}, {"name": "StatefulPartitionedCall/Cast_22", "shape": [1], "dtype": "int32"}, {"name": "StatefulPartitionedCall/ExpandDims_2/dim", "shape": [], "dtype": "int32"}, {"name": "StatefulPartitionedCall/ExpandDims_13/dim", "shape": [], "dtype": "int32"}, {"name": "StatefulPartitionedCall/ExpandDims_17/dim", "shape": [], "dtype": "int32"}, {"name": "StatefulPartitionedCall/onnx_tf_prefix_/transformer_encoder/layers.0/self_attn/Concat_2/axis", "shape": [], "dtype": "int32"}, {"name": "StatefulPartitionedCall/Const_14", "shape": [], "dtype": "int32"}, {"name": "StatefulPartitionedCall/GatherV2_5/axis", "shape": [], "dtype": "int32"}, {"name": "StatefulPartitionedCall/zeros_9", "shape": [], "dtype": "int32"}, {"name": "StatefulPartitionedCall/onnx_tf_prefix_/transformer_encoder/layers.0/self_attn/Transpose_2/perm", "shape": [3], "dtype": "int32"}, {"name": "StatefulPartitionedCall/ExpandDims_3/dim", "shape": [], "dtype": "int32"}, {"name": "StatefulPartitionedCall/onnx_tf_prefix_/transformer_encoder/layers.0/self_attn/Constant_23", "shape": [1], "dtype": "int32"}, {"name": "StatefulPartitionedCall/ExpandDims_4/dim", "shape": [], "dtype": "int32"}, {"name": "StatefulPartitionedCall/ExpandDims_20/dim", "shape": [], "dtype": "int32"}, {"name": "StatefulPartitionedCall/onnx_tf_prefix_/transformer_encoder/layers.0/self_attn/Concat_5/axis", "shape": [], "dtype": "int32"}, {"name": "StatefulPartitionedCall/Const_17", "shape": [], "dtype": "int32"}, {"name": "StatefulPartitionedCall/GatherV2_8/axis", "shape": [], "dtype": "int32"}, {"name": "StatefulPartitionedCall/zeros_12", "shape": [], "dtype": "int32"}, {"name": "StatefulPartitionedCall/SelectV2_17", "shape": [1], "dtype": "int32"}, {"name": "StatefulPartitionedCall/zeros_13", "shape": [], "dtype": "int32"}, {"name": "StatefulPartitionedCall/Const_19", "shape": [], "dtype": "int32"}, {"name": "StatefulPartitionedCall/Shape_30", "shape": [1], "dtype": "int32"}, {"name": "StatefulPartitionedCall/ExpandDims_26", "shape": [1, 1], "dtype": "int32"}, {"name": "StatefulPartitionedCall/Cast_29", "shape": [1], "dtype": "int32"}, {"name": "StatefulPartitionedCall/SelectV2_18", "shape": [1], "dtype": "int32"}, {"name": "StatefulPartitionedCall/Const_18", "shape": [], "dtype": "int32"}, {"name": "StatefulPartitionedCall/ones_3", "shape": [1], "dtype": "int32"}, {"name": "StatefulPartitionedCall/Cast_31", "shape": [1], "dtype": "int32"}, {"name": "StatefulPartitionedCall/Cast_24", "shape": [1], "dtype": "int32"}, {"name": "StatefulPartitionedCall/onnx_tf_prefix_/transformer_encoder/layers.0/self_attn/Constant_21", "shape": [1], "dtype": "int32"}, {"name": "StatefulPartitionedCall/ExpandDims_15/dim", "shape": [], "dtype": "int32"}, {"name": "StatefulPartitionedCall/ExpandDims_19/dim", "shape": [], "dtype": "int32"}, {"name": "StatefulPartitionedCall/onnx_tf_prefix_/transformer_encoder/layers.0/self_attn/Concat_4/axis", "shape": [], "dtype": "int32"}, {"name": "StatefulPartitionedCall/Const_16", "shape": [], "dtype": "int32"}, {"name": "StatefulPartitionedCall/GatherV2_7/axis", "shape": [], "dtype": "int32"}, {"name": "StatefulPartitionedCall/zeros_11", "shape": [], "dtype": "int32"}, {"name": "StatefulPartitionedCall/onnx_tf_prefix_/transformer_encoder/layers.0/self_attn/Transpose_4/perm", "shape": [3], "dtype": "int32"}, {"name": "StatefulPartitionedCall/ExpandDims_6/dim", "shape": [], "dtype": "int32"}, {"name": "StatefulPartitionedCall/onnx_tf_prefix_/transformer_encoder/layers.0/self_attn/Constant_25", "shape": [1], "dtype": "int32"}, {"name": "StatefulPartitionedCall/Cast_23", "shape": [1], "dtype": "int32"}, {"name": "StatefulPartitionedCall/onnx_tf_prefix_/transformer_encoder/layers.0/self_attn/Constant_20", "shape": [1], "dtype": "int32"}, {"name": "StatefulPartitionedCall/onnx_tf_prefix_/transformer_encoder/layers.0/self_attn/Constant_19", "shape": [], "dtype": "int32"}, {"name": "StatefulPartitionedCall/ExpandDims_14/dim", "shape": [], "dtype": "int32"}, {"name": "StatefulPartitionedCall/ExpandDims_18/dim", "shape": [], "dtype": "int32"}, {"name": "StatefulPartitionedCall/onnx_tf_prefix_/transformer_encoder/layers.0/self_attn/Concat_3/axis", "shape": [], "dtype": "int32"}, {"name": "StatefulPartitionedCall/Const_15", "shape": [], "dtype": "int32"}, {"name": "StatefulPartitionedCall/GatherV2_6/axis", "shape": [], "dtype": "int32"}, {"name": "StatefulPartitionedCall/zeros_10", "shape": [], "dtype": "int32"}, {"name": "StatefulPartitionedCall/onnx_tf_prefix_/transformer_encoder/layers.0/self_attn/Transpose_3/perm", "shape": [3], "dtype": "int32"}, {"name": "StatefulPartitionedCall/ExpandDims_25/dim", "shape": [], "dtype": "int32"}, {"name": "ConstantFolding/StatefulPartitionedCall/onnx_tf_prefix_/transformer_encoder/layers.0/self_attn/Div_recip", "shape": [], "dtype": "float32"}, {"name": "StatefulPartitionedCall/ExpandDims_22/dim", "shape": [], "dtype": "int32"}, {"name": "StatefulPartitionedCall/onnx_tf_prefix_/transformer_encoder/layers.0/self_attn/Concat_7/axis", "shape": [], "dtype": "int32"}, {"name": "StatefulPartitionedCall/Const_21", "shape": [], "dtype": "int32"}, {"name": "StatefulPartitionedCall/GatherV2_10/axis", "shape": [], "dtype": "int32"}, {"name": "StatefulPartitionedCall/zeros_15", "shape": [], "dtype": "int32"}, {"name": "StatefulPartitionedCall/onnx_tf_prefix_/transformer_encoder/layers.0/self_attn/Transpose_6/perm", "shape": [4], "dtype": "int32"}, {"name": "StatefulPartitionedCall/ExpandDims_16/dim", "shape": [], "dtype": "int32"}, {"name": "StatefulPartitionedCall/ExpandDims_7/dim", "shape": [], "dtype": "int32"}, {"name": "StatefulPartitionedCall/onnx_tf_prefix_/transformer_encoder/layers.0/self_attn/Concat_8/axis", "shape": [], "dtype": "int32"}, {"name": "StatefulPartitionedCall/Const_22", "shape": [], "dtype": "int32"}, {"name": "StatefulPartitionedCall/GatherV2_11/axis", "shape": [], "dtype": "int32"}, {"name": "StatefulPartitionedCall/zeros_16", "shape": [], "dtype": "int32"}, {"name": "StatefulPartitionedCall/flatten/strided_slice/stack", "shape": [1], "dtype": "int32"}, {"name": "StatefulPartitionedCall/flatten/strided_slice/stack_1", "shape": [1], "dtype": "int32"}, {"name": "StatefulPartitionedCall/flatten/strided_slice/stack_2", "shape": [1], "dtype": "int32"}, {"name": "StatefulPartitionedCall/flatten/Reshape/shape/1", "shape": [], "dtype": "int32"}, {"name": "StatefulPartitionedCall/transpose", "shape": [128, 128], "dtype": "float32"}, {"name": "StatefulPartitionedCall/mul_1", "shape": [128], "dtype": "float32"}, {"name": "StatefulPartitionedCall/assert_equal_7/All", "shape": [], "dtype": "bool"}, {"name": "StatefulPartitionedCall/onnx_tf_prefix_/pos_encoder/Constant_2", "shape": [], "dtype": "int32"}, {"name": "StatefulPartitionedCall/strided_slice_6/stack", "shape": [1], "dtype": "int32"}, {"name": "StatefulPartitionedCall/strided_slice_6/stack_1", "shape": [1], "dtype": "int32"}, {"name": "StatefulPartitionedCall/strided_slice_6/stack_2", "shape": [1], "dtype": "int32"}, {"name": "StatefulPartitionedCall/assert_equal_9/y", "shape": [], "dtype": "bool"}, {"name": "StatefulPartitionedCall/onnx_tf_prefix_/pos_encoder/Constant", "shape": [], "dtype": "int32"}, {"name": "StatefulPartitionedCall/strided_slice_8/stack", "shape": [1], "dtype": "int32"}, {"name": "StatefulPartitionedCall/strided_slice_8/stack_1", "shape": [1], "dtype": "int32"}, {"name": "StatefulPartitionedCall/strided_slice_8/stack_2", "shape": [1], "dtype": "int32"}, {"name": "StatefulPartitionedCall/assert_equal_11/y", "shape": [], "dtype": "bool"}, {"name": "StatefulPartitionedCall/onnx_tf_prefix_/transformer_encoder/layers.0/self_attn/Constant_2", "shape": [], "dtype": "int32"}, {"name": "StatefulPartitionedCall/Cast_21", "shape": [1], "dtype": "int32"}, {"name": "StatefulPartitionedCall/SelectV2_9", "shape": [1], "dtype": "int32"}, {"name": "StatefulPartitionedCall/zeros_6", "shape": [], "dtype": "int32"}, {"name": "StatefulPartitionedCall/Const_10", "shape": [], "dtype": "int32"}, {"name": "StatefulPartitionedCall/Shape_10", "shape": [1], "dtype": "int32"}, {"name": "StatefulPartitionedCall/ExpandDims_11", "shape": [1, 1], "dtype": "int32"}, {"name": "StatefulPartitionedCall/Cast_18", "shape": [1], "dtype": "int32"}, {"name": "StatefulPartitionedCall/SelectV2_10", "shape": [1], "dtype": "int32"}, {"name": "StatefulPartitionedCall/Const_9", "shape": [], "dtype": "int32"}, {"name": "StatefulPartitionedCall/ones_1", "shape": [1], "dtype": "int32"}, {"name": "StatefulPartitionedCall/onnx_tf_prefix_/transformer_encoder/layers.0/self_attn/Constant_9", "shape": [1], "dtype": "int32"}, {"name": "StatefulPartitionedCall/SelectV2_5", "shape": [1], "dtype": "int32"}, {"name": "StatefulPartitionedCall/zeros_5", "shape": [], "dtype": "int32"}, {"name": "StatefulPartitionedCall/Const_8", "shape": [], "dtype": "int32"}, {"name": "StatefulPartitionedCall/Shape_9", "shape": [1], "dtype": "int32"}, {"name": "StatefulPartitionedCall/ExpandDims_1", "shape": [1, 1], "dtype": "int32"}, {"name": "StatefulPartitionedCall/Cast_15", "shape": [1], "dtype": "int32"}, {"name": "StatefulPartitionedCall/SelectV2_6", "shape": [1], "dtype": "int32"}, {"name": "StatefulPartitionedCall/Const_7", "shape": [], "dtype": "int32"}, {"name": "StatefulPartitionedCall/ones", "shape": [1], "dtype": "int32"}, {"name": "StatefulPartitionedCall/ExpandDims_10/dim", "shape": [], "dtype": "int32"}, {"name": "unknown_6", "shape": [384], "dtype": "float32"}, {"name": "unknown_4", "shape": [39, 128], "dtype": "float32"}, {"name": "StatefulPartitionedCall/onnx_tf_prefix_/Constant", "shape": [], "dtype": "float32"}, {"name": "StatefulPartitionedCall/onnx_tf_prefix_/pos_encoder/Mul_transpose/perm", "shape": [3], "dtype": "int32"}, {"name": "unknown", "shape": [1, 40, 128], "dtype": "float32"}, {"name": "StatefulPartitionedCall/SelectV2_1", "shape": [1], "dtype": "int32"}, {"name": "StatefulPartitionedCall/zeros", "shape": [], "dtype": "int32"}, {"name": "StatefulPartitionedCall/Const_1", "shape": [], "dtype": "int32"}, {"name": "StatefulPartitionedCall/Shape", "shape": [3], "dtype": "int32"}, {"name": "StatefulPartitionedCall/SelectV2_2", "shape": [1], "dtype": "int32"}, {"name": "StatefulPartitionedCall/Const", "shape": [], "dtype": "int32"}, {"name": "StatefulPartitionedCall/ExpandDims", "shape": [1, 1], "dtype": "int32"}, {"name": "StatefulPartitionedCall/Cast_1", "shape": [1], "dtype": "int32"}, {"name": "unknown_3", "shape": [1], "dtype": "int32"}, {"name": "StatefulPartitionedCall/Const_2", "shape": [], "dtype": "int32"}, {"name": "StatefulPartitionedCall/onnx_tf_prefix_/pos_encoder/Slice_transpose/perm", "shape": [3], "dtype": "int32"}, {"name": "StatefulPartitionedCall/onnx_tf_prefix_/pos_encoder/Add_transpose_back/perm", "shape": [3], "dtype": "int32"}, {"name": "StatefulPartitionedCall/onnx_tf_prefix_/transformer_encoder/layers.0/self_attn/Transpose/perm", "shape": [3], "dtype": "int32"}, {"name": "unknown_5", "shape": [128, 384], "dtype": "float32"}, {"name": "StatefulPartitionedCall/SelectV2_13", "shape": [1], "dtype": "int32"}, {"name": "StatefulPartitionedCall/zeros_7", "shape": [], "dtype": "int32"}, {"name": "StatefulPartitionedCall/Const_12", "shape": [], "dtype": "int32"}, {"name": "StatefulPartitionedCall/Shape_12", "shape": [1], "dtype": "int32"}, {"name": "StatefulPartitionedCall/ExpandDims_12", "shape": [1, 1], "dtype": "int32"}, {"name": "StatefulPartitionedCall/Cast_20", "shape": [1], "dtype": "int32"}, {"name": "StatefulPartitionedCall/SelectV2_14", "shape": [1], "dtype": "int32"}, {"name": "StatefulPartitionedCall/Const_11", "shape": [], "dtype": "int32"}, {"name": "StatefulPartitionedCall/ones_2", "shape": [1], "dtype": "int32"}, {"name": "StatefulPartitionedCall/onnx_tf_prefix_/transformer_encoder/layers.0/self_attn/Concat_1/axis", "shape": [], "dtype": "int32"}, {"name": "StatefulPartitionedCall/Const_13", "shape": [], "dtype": "int32"}, {"name": "StatefulPartitionedCall/GatherV2_4/axis", "shape": [], "dtype": "int32"}, {"name": "StatefulPartitionedCall/zeros_8", "shape": [], "dtype": "int32"}, {"name": "StatefulPartitionedCall/ExpandDims_23/dim", "shape": [], "dtype": "int32"}, {"name": "StatefulPartitionedCall/onnx_tf_prefix_/transformer_encoder/layers.0/self_attn/Transpose_1/perm", "shape": [5], "dtype": "int32"}, {"name": "StatefulPartitionedCall/strided_slice_10/stack", "shape": [1], "dtype": "int32"}, {"name": "StatefulPartitionedCall/strided_slice_10/stack_1", "shape": [1], "dtype": "int32"}, {"name": "StatefulPartitionedCall/strided_slice_10/stack_2", "shape": [1], "dtype": "int32"}, {"name": "StatefulPartitionedCall/assert_equal_13/y", "shape": [], "dtype": "bool"}, {"name": "StatefulPartitionedCall/assert_equal_15/All", "shape": [], "dtype": "bool"}, {"name": "StatefulPartitionedCall/assert_equal_17/All", "shape": [], "dtype": "bool"}, {"name": "StatefulPartitionedCall/ExpandDims_27/dim", "shape": [], "dtype": "int32"}, {"name": "StatefulPartitionedCall/onnx_tf_prefix_/transformer_encoder/layers.0/self_attn/Concat_9/axis", "shape": [], "dtype": "int32"}, {"name": "StatefulPartitionedCall/Const_23", "shape": [], "dtype": "int32"}, {"name": "StatefulPartitionedCall/GatherV2_12/axis", "shape": [], "dtype": "int32"}, {"name": "StatefulPartitionedCall/zeros_17", "shape": [], "dtype": "int32"}, {"name": "StatefulPartitionedCall/onnx_tf_prefix_/transformer_encoder/layers.0/self_attn/Transpose_7/perm", "shape": [3], "dtype": "int32"}, {"name": "StatefulPartitionedCall/onnx_tf_prefix_/transformer_encoder/layers.0/norm1/ReduceMean/reduction_indices", "shape": [], "dtype": "int32"}, {"name": "StatefulPartitionedCall/onnx_tf_prefix_/transformer_encoder/layers.0/norm1/ReduceMean_1/reduction_indices", "shape": [], "dtype": "int32"}, {"name": "StatefulPartitionedCall/onnx_tf_prefix_/transformer_encoder/layers.0/norm1/Constant_1", "shape": [], "dtype": "float32"}, {"name": "unknown_10", "shape": [128], "dtype": "float32"}, {"name": "unknown_11", "shape": [128, 512], "dtype": "float32"}, {"name": "unknown_13", "shape": [512, 128], "dtype": "float32"}, {"name": "StatefulPartitionedCall/onnx_tf_prefix_/transformer_encoder/layers.0/norm2/ReduceMean/reduction_indices", "shape": [], "dtype": "int32"}, {"name": "unknown_16", "shape": [128], "dtype": "float32"}, {"name": "StatefulPartitionedCall/onnx_tf_prefix_/transformer_encoder/layers.1/self_attn/Transpose/perm", "shape": [3], "dtype": "int32"}, {"name": "unknown_17", "shape": [128, 384], "dtype": "float32"}, {"name": "StatefulPartitionedCall/SelectV2_29", "shape": [1], "dtype": "int32"}, {"name": "StatefulPartitionedCall/zeros_20", "shape": [], "dtype": "int32"}, {"name": "StatefulPartitionedCall/Const_29", "shape": [], "dtype": "int32"}, {"name": "StatefulPartitionedCall/Shape_43", "shape": [1], "dtype": "int32"}, {"name": "StatefulPartitionedCall/ExpandDims_39", "shape": [1, 1], "dtype": "int32"}, {"name": "StatefulPartitionedCall/Cast_48", "shape": [1], "dtype": "int32"}, {"name": "StatefulPartitionedCall/SelectV2_30", "shape": [1], "dtype": "int32"}, {"name": "StatefulPartitionedCall/Const_28", "shape": [], "dtype": "int32"}, {"name": "StatefulPartitionedCall/ones_6", "shape": [1], "dtype": "int32"}, {"name": "StatefulPartitionedCall/onnx_tf_prefix_/transformer_encoder/layers.1/self_attn/Concat_1/axis", "shape": [], "dtype": "int32"}, {"name": "StatefulPartitionedCall/Const_30", "shape": [], "dtype": "int32"}, {"name": "StatefulPartitionedCall/GatherV2_13/axis", "shape": [], "dtype": "int32"}, {"name": "StatefulPartitionedCall/zeros_21", "shape": [], "dtype": "int32"}, {"name": "StatefulPartitionedCall/ExpandDims_50/dim", "shape": [], "dtype": "int32"}, {"name": "StatefulPartitionedCall/onnx_tf_prefix_/transformer_encoder/layers.1/self_attn/Transpose_1/perm", "shape": [5], "dtype": "int32"}, {"name": "StatefulPartitionedCall/strided_slice_24/stack", "shape": [1], "dtype": "int32"}, {"name": "StatefulPartitionedCall/strided_slice_24/stack_1", "shape": [1], "dtype": "int32"}, {"name": "StatefulPartitionedCall/strided_slice_24/stack_2", "shape": [1], "dtype": "int32"}, {"name": "StatefulPartitionedCall/assert_equal_29/y", "shape": [], "dtype": "bool"}, {"name": "StatefulPartitionedCall/assert_equal_31/All", "shape": [], "dtype": "bool"}, {"name": "StatefulPartitionedCall/assert_equal_33/All", "shape": [], "dtype": "bool"}, {"name": "StatefulPartitionedCall/ExpandDims_54/dim", "shape": [], "dtype": "int32"}, {"name": "StatefulPartitionedCall/onnx_tf_prefix_/transformer_encoder/layers.1/self_attn/Concat_9/axis", "shape": [], "dtype": "int32"}, {"name": "StatefulPartitionedCall/Const_40", "shape": [], "dtype": "int32"}, {"name": "StatefulPartitionedCall/GatherV2_21/axis", "shape": [], "dtype": "int32"}, {"name": "StatefulPartitionedCall/zeros_30", "shape": [], "dtype": "int32"}, {"name": "StatefulPartitionedCall/onnx_tf_prefix_/transformer_encoder/layers.1/self_attn/Transpose_7/perm", "shape": [3], "dtype": "int32"}, {"name": "StatefulPartitionedCall/onnx_tf_prefix_/transformer_encoder/layers.1/norm1/ReduceMean/reduction_indices", "shape": [], "dtype": "int32"}, {"name": "unknown_22", "shape": [128], "dtype": "float32"}, {"name": "unknown_23", "shape": [128, 512], "dtype": "float32"}, {"name": "unknown_25", "shape": [512, 128], "dtype": "float32"}, {"name": "StatefulPartitionedCall/onnx_tf_prefix_/transformer_encoder/layers.1/norm2/ReduceMean/reduction_indices", "shape": [], "dtype": "int32"}, {"name": "unknown_28", "shape": [128], "dtype": "float32"}, {"name": "StatefulPartitionedCall/strided_slice_29/stack", "shape": [1], "dtype": "int32"}, {"name": "StatefulPartitionedCall/strided_slice_29/stack_1", "shape": [1], "dtype": "int32"}, {"name": "StatefulPartitionedCall/strided_slice_29/stack_2", "shape": [1], "dtype": "int32"}, {"name": "StatefulPartitionedCall/assert_equal_35/y", "shape": [], "dtype": "bool"}, {"name": "StatefulPartitionedCall/Neg", "shape": [], "dtype": "int32"}, {"name": "StatefulPartitionedCall/strided_slice", "shape": [], "dtype": "int32"}, {"name": "StatefulPartitionedCall/assert_equal_1/y", "shape": [], "dtype": "bool"}, {"name": "StatefulPartitionedCall/assert_equal_1/Const", "shape": [2], "dtype": "int32"}, {"name": "StatefulPartitionedCall/assert_equal_3/All", "shape": [], "dtype": "bool"}, {"name": "StatefulPartitionedCall/assert_equal_5/All", "shape": [], "dtype": "bool"}, {"name": "StatefulPartitionedCall/assert_equal_1/Assert/AssertGuard/pivot_f/_53", "shape": [], "dtype": "bool"}, {"name": "StatefulPartitionedCall/assert_equal_1/Assert/AssertGuard/pivot_t/_54", "shape": [], "dtype": "bool"}, {"name": "Func/StatefulPartitionedCall/assert_equal_1/Assert/AssertGuard/then/_50/output/_234", "shape": [], "dtype": "bool"}, {"name": "Func/StatefulPartitionedCall/assert_equal_1/Assert/AssertGuard/else/_51/output/_240", "shape": [], "dtype": "bool"}, {"name": "StatefulPartitionedCall/assert_equal_3/Assert/AssertGuard/pivot_t/_64", "shape": [], "dtype": "bool"}, {"name": "StatefulPartitionedCall/Cast_3/x", "shape": [], "dtype": "int32"}, {"name": "StatefulPartitionedCall/onnx_tf_prefix_/auction_embedding/Gather/axis", "shape": [], "dtype": "int32"}, {"name": "Func/StatefulPartitionedCall/assert_equal_3/Assert/AssertGuard/then/_60/output/_246", "shape": [], "dtype": "bool"}, {"name": "StatefulPartitionedCall/assert_equal_3/Assert/AssertGuard/else/_61/assert_equal_3/Assert/AssertGuard/Identity_1", "shape": [], "dtype": "bool"}, {"name": "StatefulPartitionedCall/assert_equal_5/Assert/AssertGuard/pivot_t/_74", "shape": [], "dtype": "bool"}, {"name": "Func/StatefulPartitionedCall/assert_equal_5/Assert/AssertGuard/then/_70/output/_258", "shape": [], "dtype": "bool"}, {"name": "StatefulPartitionedCall/FloorMod_1", "shape": [], "dtype": "int32"}, {"name": "StatefulPartitionedCall/onnx_tf_prefix_/transformer_encoder/layers.0/self_attn/Gather/axis", "shape": [], "dtype": "int32"}, {"name": "StatefulPartitionedCall/assert_equal_5/Assert/AssertGuard/else/_71/assert_equal_5/Assert/AssertGuard/Identity_1", "shape": [], "dtype": "bool"}, {"name": "StatefulPartitionedCall/assert_equal_7/Assert/AssertGuard/pivot_t/_84", "shape": [], "dtype": "bool"}, {"name": "Func/StatefulPartitionedCall/assert_equal_7/Assert/AssertGuard/then/_80/output/_270", "shape": [], "dtype": "bool"}, {"name": "StatefulPartitionedCall/FloorMod_2", "shape": [], "dtype": "int32"}, {"name": "StatefulPartitionedCall/onnx_tf_prefix_/transformer_encoder/layers.0/self_attn/Gather_1/axis", "shape": [], "dtype": "int32"}, {"name": "StatefulPartitionedCall/assert_equal_7/Assert/AssertGuard/else/_81/assert_equal_7/Assert/AssertGuard/Identity_1", "shape": [], "dtype": "bool"}, {"name": "StatefulPartitionedCall/FloorMod_3", "shape": [], "dtype": "int32"}, {"name": "StatefulPartitionedCall/onnx_tf_prefix_/transformer_encoder/layers.0/self_attn/Gather_2/axis", "shape": [], "dtype": "int32"}, {"name": "StatefulPartitionedCall/assert_equal_9/Assert/AssertGuard/pivot_f/_93", "shape": [], "dtype": "bool"}, {"name": "StatefulPartitionedCall/assert_equal_9/Assert/AssertGuard/pivot_t/_94", "shape": [], "dtype": "bool"}, {"name": "Func/StatefulPartitionedCall/assert_equal_9/Assert/AssertGuard/then/_90/output/_282", "shape": [], "dtype": "bool"}, {"name": "Func/StatefulPartitionedCall/assert_equal_9/Assert/AssertGuard/else/_91/output/_288", "shape": [], "dtype": "bool"}, {"name": "StatefulPartitionedCall/strided_slice_7/stack", "shape": [1], "dtype": "int32"}, {"name": "StatefulPartitionedCall/strided_slice_7/stack_1", "shape": [1], "dtype": "int32"}, {"name": "StatefulPartitionedCall/strided_slice_7/stack_2", "shape": [1], "dtype": "int32"}, {"name": "StatefulPartitionedCall/onnx_tf_prefix_/transformer_encoder/layers.0/self_attn/Gather_3/axis", "shape": [], "dtype": "int32"}, {"name": "StatefulPartitionedCall/assert_equal_11/Assert/AssertGuard/pivot_f/_103", "shape": [], "dtype": "bool"}, {"name": "StatefulPartitionedCall/assert_equal_11/Assert/AssertGuard/pivot_t/_104", "shape": [], "dtype": "bool"}, {"name": "Func/StatefulPartitionedCall/assert_equal_11/Assert/AssertGuard/then/_100/output/_294", "shape": [], "dtype": "bool"}, {"name": "Func/StatefulPartitionedCall/assert_equal_11/Assert/AssertGuard/else/_101/output/_300", "shape": [], "dtype": "bool"}, {"name": "StatefulPartitionedCall/strided_slice_9/stack", "shape": [1], "dtype": "int32"}, {"name": "StatefulPartitionedCall/strided_slice_9/stack_1", "shape": [1], "dtype": "int32"}, {"name": "StatefulPartitionedCall/strided_slice_9/stack_2", "shape": [1], "dtype": "int32"}, {"name": "StatefulPartitionedCall/onnx_tf_prefix_/transformer_encoder/layers.0/self_attn/Gather_4/axis", "shape": [], "dtype": "int32"}, {"name": "StatefulPartitionedCall/assert_equal_13/Assert/AssertGuard/pivot_f/_113", "shape": [], "dtype": "bool"}, {"name": "StatefulPartitionedCall/assert_equal_13/Assert/AssertGuard/pivot_t/_114", "shape": [], "dtype": "bool"}, {"name": "Func/StatefulPartitionedCall/assert_equal_13/Assert/AssertGuard/then/_110/output/_306", "shape": [], "dtype": "bool"}, {"name": "Func/StatefulPartitionedCall/assert_equal_13/Assert/AssertGuard/else/_111/output/_312", "shape": [], "dtype": "bool"}, {"name": "StatefulPartitionedCall/assert_equal_15/Assert/AssertGuard/pivot_t/_124", "shape": [], "dtype": "bool"}, {"name": "StatefulPartitionedCall/strided_slice_11/stack", "shape": [1], "dtype": "int32"}, {"name": "StatefulPartitionedCall/strided_slice_11/stack_1", "shape": [1], "dtype": "int32"}, {"name": "StatefulPartitionedCall/strided_slice_11/stack_2", "shape": [1], "dtype": "int32"}, {"name": "StatefulPartitionedCall/onnx_tf_prefix_/transformer_encoder/layers.0/self_attn/Gather_5/axis", "shape": [], "dtype": "int32"}, {"name": "Func/StatefulPartitionedCall/assert_equal_15/Assert/AssertGuard/then/_120/output/_318", "shape": [], "dtype": "bool"}, {"name": "StatefulPartitionedCall/assert_equal_15/Assert/AssertGuard/else/_121/assert_equal_15/Assert/AssertGuard/Identity_1", "shape": [], "dtype": "bool"}, {"name": "StatefulPartitionedCall/assert_equal_17/Assert/AssertGuard/pivot_t/_134", "shape": [], "dtype": "bool"}, {"name": "Func/StatefulPartitionedCall/assert_equal_17/Assert/AssertGuard/then/_130/output/_330", "shape": [], "dtype": "bool"}, {"name": "StatefulPartitionedCall/FloorMod_7", "shape": [], "dtype": "int32"}, {"name": "StatefulPartitionedCall/onnx_tf_prefix_/transformer_encoder/layers.0/self_attn/Gather_6/axis", "shape": [], "dtype": "int32"}, {"name": "StatefulPartitionedCall/assert_equal_17/Assert/AssertGuard/else/_131/assert_equal_17/Assert/AssertGuard/Identity_1", "shape": [], "dtype": "bool"}, {"name": "StatefulPartitionedCall/assert_equal_19/Assert/AssertGuard/pivot_t/_144", "shape": [], "dtype": "bool"}, {"name": "Func/StatefulPartitionedCall/assert_equal_19/Assert/AssertGuard/then/_140/output/_342", "shape": [], "dtype": "bool"}, {"name": "StatefulPartitionedCall/FloorMod_8", "shape": [], "dtype": "int32"}, {"name": "StatefulPartitionedCall/onnx_tf_prefix_/transformer_encoder/layers.0/self_attn/Gather_7/axis", "shape": [], "dtype": "int32"}, {"name": "StatefulPartitionedCall/assert_equal_19/Assert/AssertGuard/else/_141/assert_equal_19/Assert/AssertGuard/Identity_1", "shape": [], "dtype": "bool"}, {"name": "StatefulPartitionedCall/assert_equal_21/Assert/AssertGuard/pivot_t/_154", "shape": [], "dtype": "bool"}, {"name": "Func/StatefulPartitionedCall/assert_equal_21/Assert/AssertGuard/then/_150/output/_354", "shape": [], "dtype": "bool"}, {"name": "StatefulPartitionedCall/FloorMod_9", "shape": [], "dtype": "int32"}, {"name": "StatefulPartitionedCall/onnx_tf_prefix_/transformer_encoder/layers.1/self_attn/Gather/axis", "shape": [], "dtype": "int32"}, {"name": "StatefulPartitionedCall/assert_equal_21/Assert/AssertGuard/else/_151/assert_equal_21/Assert/AssertGuard/Identity_1", "shape": [], "dtype": "bool"}, {"name": "StatefulPartitionedCall/assert_equal_23/Assert/AssertGuard/pivot_t/_164", "shape": [], "dtype": "bool"}, {"name": "Func/StatefulPartitionedCall/assert_equal_23/Assert/AssertGuard/then/_160/output/_366", "shape": [], "dtype": "bool"}, {"name": "StatefulPartitionedCall/FloorMod_10", "shape": [], "dtype": "int32"}, {"name": "StatefulPartitionedCall/onnx_tf_prefix_/transformer_encoder/layers.1/self_attn/Gather_1/axis", "shape": [], "dtype": "int32"}, {"name": "StatefulPartitionedCall/assert_equal_23/Assert/AssertGuard/else/_161/assert_equal_23/Assert/AssertGuard/Identity_1", "shape": [], "dtype": "bool"}, {"name": "StatefulPartitionedCall/FloorMod_11", "shape": [], "dtype": "int32"}, {"name": "StatefulPartitionedCall/onnx_tf_prefix_/transformer_encoder/layers.1/self_attn/Gather_2/axis", "shape": [], "dtype": "int32"}, {"name": "StatefulPartitionedCall/assert_equal_25/Assert/AssertGuard/pivot_f/_173", "shape": [], "dtype": "bool"}, {"name": "StatefulPartitionedCall/assert_equal_25/Assert/AssertGuard/pivot_t/_174", "shape": [], "dtype": "bool"}, {"name": "Func/StatefulPartitionedCall/assert_equal_25/Assert/AssertGuard/then/_170/output/_378", "shape": [], "dtype": "bool"}, {"name": "Func/StatefulPartitionedCall/assert_equal_25/Assert/AssertGuard/else/_171/output/_384", "shape": [], "dtype": "bool"}, {"name": "StatefulPartitionedCall/strided_slice_21/stack", "shape": [1], "dtype": "int32"}, {"name": "StatefulPartitionedCall/strided_slice_21/stack_1", "shape": [1], "dtype": "int32"}, {"name": "StatefulPartitionedCall/strided_slice_21/stack_2", "shape": [1], "dtype": "int32"}, {"name": "StatefulPartitionedCall/onnx_tf_prefix_/transformer_encoder/layers.1/self_attn/Gather_3/axis", "shape": [], "dtype": "int32"}, {"name": "StatefulPartitionedCall/assert_equal_27/Assert/AssertGuard/pivot_f/_183", "shape": [], "dtype": "bool"}, {"name": "StatefulPartitionedCall/assert_equal_27/Assert/AssertGuard/pivot_t/_184", "shape": [], "dtype": "bool"}, {"name": "Func/StatefulPartitionedCall/assert_equal_27/Assert/AssertGuard/then/_180/output/_390", "shape": [], "dtype": "bool"}, {"name": "Func/StatefulPartitionedCall/assert_equal_27/Assert/AssertGuard/else/_181/output/_396", "shape": [], "dtype": "bool"}, {"name": "StatefulPartitionedCall/strided_slice_23/stack", "shape": [1], "dtype": "int32"}, {"name": "StatefulPartitionedCall/strided_slice_23/stack_1", "shape": [1], "dtype": "int32"}, {"name": "StatefulPartitionedCall/strided_slice_23/stack_2", "shape": [1], "dtype": "int32"}, {"name": "StatefulPartitionedCall/onnx_tf_prefix_/transformer_encoder/layers.1/self_attn/Gather_4/axis", "shape": [], "dtype": "int32"}, {"name": "StatefulPartitionedCall/assert_equal_29/Assert/AssertGuard/pivot_f/_193", "shape": [], "dtype": "bool"}, {"name": "StatefulPartitionedCall/assert_equal_29/Assert/AssertGuard/pivot_t/_194", "shape": [], "dtype": "bool"}, {"name": "Func/StatefulPartitionedCall/assert_equal_29/Assert/AssertGuard/then/_190/output/_402", "shape": [], "dtype": "bool"}, {"name": "Func/StatefulPartitionedCall/assert_equal_29/Assert/AssertGuard/else/_191/output/_408", "shape": [], "dtype": "bool"}, {"name": "StatefulPartitionedCall/assert_equal_31/Assert/AssertGuard/pivot_t/_204", "shape": [], "dtype": "bool"}, {"name": "StatefulPartitionedCall/strided_slice_25/stack", "shape": [1], "dtype": "int32"}, {"name": "StatefulPartitionedCall/strided_slice_25/stack_1", "shape": [1], "dtype": "int32"}, {"name": "StatefulPartitionedCall/strided_slice_25/stack_2", "shape": [1], "dtype": "int32"}, {"name": "StatefulPartitionedCall/onnx_tf_prefix_/transformer_encoder/layers.1/self_attn/Gather_5/axis", "shape": [], "dtype": "int32"}, {"name": "Func/StatefulPartitionedCall/assert_equal_31/Assert/AssertGuard/then/_200/output/_414", "shape": [], "dtype": "bool"}, {"name": "StatefulPartitionedCall/assert_equal_31/Assert/AssertGuard/else/_201/assert_equal_31/Assert/AssertGuard/Identity_1", "shape": [], "dtype": "bool"}, {"name": "StatefulPartitionedCall/assert_equal_33/Assert/AssertGuard/pivot_t/_214", "shape": [], "dtype": "bool"}, {"name": "Func/StatefulPartitionedCall/assert_equal_33/Assert/AssertGuard/then/_210/output/_426", "shape": [], "dtype": "bool"}, {"name": "StatefulPartitionedCall/FloorMod_15", "shape": [], "dtype": "int32"}, {"name": "StatefulPartitionedCall/onnx_tf_prefix_/transformer_encoder/layers.1/self_attn/Gather_6/axis", "shape": [], "dtype": "int32"}, {"name": "StatefulPartitionedCall/assert_equal_33/Assert/AssertGuard/else/_211/assert_equal_33/Assert/AssertGuard/Identity_1", "shape": [], "dtype": "bool"}, {"name": "StatefulPartitionedCall/FloorMod_16", "shape": [], "dtype": "int32"}, {"name": "StatefulPartitionedCall/onnx_tf_prefix_/transformer_encoder/layers.1/self_attn/Gather_7/axis", "shape": [], "dtype": "int32"}, {"name": "StatefulPartitionedCall/assert_equal_35/Assert/AssertGuard/pivot_f/_223", "shape": [], "dtype": "bool"}, {"name": "StatefulPartitionedCall/assert_equal_35/Assert/AssertGuard/pivot_t/_224", "shape": [], "dtype": "bool"}, {"name": "Func/StatefulPartitionedCall/assert_equal_35/Assert/AssertGuard/then/_220/output/_438", "shape": [], "dtype": "bool"}, {"name": "Func/StatefulPartitionedCall/assert_equal_35/Assert/AssertGuard/else/_221/output/_444", "shape": [], "dtype": "bool"}, {"name": "StatefulPartitionedCall/strided_slice_30/stack", "shape": [1], "dtype": "int32"}, {"name": "StatefulPartitionedCall/strided_slice_30/stack_1", "shape": [1], "dtype": "int32"}, {"name": "StatefulPartitionedCall/strided_slice_30/stack_2", "shape": [1], "dtype": "int32"}, {"name": "StatefulPartitionedCall/onnx_tf_prefix_/Gather/axis", "shape": [], "dtype": "int32"}]}]}